checkpoint_critic.pth (torch_old, 549485 bytes, 9 tensors)

fcs1.weight f4 [400, 33]
000000 0d c9 aa bd 88 ca 1c 3e e8 dd 3c bd e5 fc 51 3f
       -0.08339129 0.15311635 -0.046110064 0.8202651
000010 ea cb c6 bf db 81 cb be b0 52 88 3e f5 4e 7d be
       -1.553098 -0.3974751 0.26625586 -0.24737151
000020 ac 24 09 3f a8 d1 9c 3e 18 7b 08 be 50 b4 67 bc
       0.5357158 0.30628705 -0.13328207 -0.014142111
000030 a3 00 f4 bd 86 38 3f 3e f5 d9 e7 bd 8e 09 bf bd
       -0.11914184 0.18673906 -0.11320869 -0.09327994
000040 3c 94 1b bf 5d 5a 4b 3f b5 10 11 bf a1 55 fa 3e
       -0.6077306 0.7943476 -0.5666612 0.48893455
000050 41 b2 af 3c 3a 77 46 3e 25 97 91 3d 2e 26 ab 3d
       0.021447303 0.19381419 0.07108907 0.083568916
000060 9c 72 4c bd dc 3d cd 3d 81 88 c0 bc 19 74 3a 3d
       -0.049913988 0.10021564 -0.02350259 0.045520876
000070 01 7f 8d 3e 26 0f f1 3c 3f cb b0 3c 7b d3 4a bd
       0.2763596 0.029426169 0.02158129 -0.04951809
000080 63 0a 40 40 dc d9 31 3e bb a7 86 be 15 d5 1a 3f
       3.000634 0.17368263 -0.26299843 0.6048139
000090 e9 bf 7e be 16 37 39 bf 2a 39 a7 bf 11 59 32 bf
       -0.24877895 -0.7234968 -1.306432 -0.69667155
0000a0 8e 08 a3 3d 18 ed 7d be 41 60 a4 bd b9 7e 49 bd
       0.07960616 -0.24797475 -0.080261715 -0.049193118
0000b0 f6 68 a6 3d 43 98 63 3e 51 e9 3e be d2 cb 35 3e
       0.081254885 0.22226052 -0.1864369 0.17753533
0000c0 7e 84 9e be b0 c3 e6 3e ce 3d 24 40 aa 8b c4 3f
       -0.3096046 0.45071173 2.5662723 1.5355122
0000d0 11 5c 27 bf b1 d7 24 bd c4 cc 56 3d 07 21 08 bd
       -0.6537486 -0.04024476 0.052441373 -0.033234622
0000e0 4d 0a 44 3e e5 e6 c5 3c c3 59 1a 3e 21 07 07 3e
       0.19144554 0.02415795 0.15073304 0.13186313
0000f0 be 32 1a bb 3d 97 be 3c 05 f9 2b 3d 17 78 f2 3b
       -0.002352878 0.023265475 0.04198553 0.0073995697
000100 00 56 19 bd c7 5d 02 bf dc 6d 92 3d 23 0d 35 3f
       -0.03743553 -0.5092434 0.0714986 0.7072317
000110 ab b9 95 3e 8e 48 92 be c0 13 55 bf 99 50 e4 be
       0.29243216 -0.2857098 -0.8323326 -0.4459274
000120 f2 af 43 bd 45 2b a3 be 2b ae bc 3d 84 74 20 bf
       -0.047775216 -0.3186895 0.092129074 -0.6267779
000130 a9 3a 40 3e 39 f1 c6 bd 86 75 e9 3c b6 50 7d 3e
       0.18772377 -0.09713978 0.028498422 0.2473782
000140 54 0e 97 3c ba a5 02 3e f6 18 3a bf 49 f7 27 3f
       0.01843945 0.12758532 -0.7269434 0.656117
000150 d7 1f 62 bf be a5 45 c0 56 09 76 3d 72 57 95 be
       -0.88329834 -3.088241 0.060067497 -0.29168278
000160 a2 87 ab be c3 ac fc bd 3b c4 92 3d 17 0d 8a 3e
       -0.33501917 -0.12337639 0.07166334 0.26963112
000170 a1 8f 74 3d 4f 23 4b bd 7a f3 a5 3d 27 f5 0d 3d
       0.059707288 -0.04959422 0.0810308 0.034657624
000180 94 01 74 3c 35 28 48 3d 12 6c a3 be 90 13 0a bf
       0.014892954 0.04886647 -0.3191839 -0.539361
000190 9b ba 87 3e 73 8d 5f bf c2 7e fe 3e 30 9a f1 be
       0.26509556 -0.8732521 0.49706084 -0.47187948
0001a0 26 43 c8 bf e7 ce 0f bf 62 da 1d 3e fd 9a 03 3d
       -1.5645492 -0.5617508 0.15415338 0.03213023
0001b0 61 b6 97 3e c6 6a 08 be ff 4c cf 3d ca df c7 bc
       0.29631332 -0.13321981 0.10122108 -0.024398703
0001c0 3d 9c ca 3e cc 26 34 be b4 7b 1e 3f f4 bc 74 be
       0.39572325 -0.17592925 0.61907506 -0.23900205
0001d0 23 bb 62 bf 16 9e 9a 3f bd 31 00 3f cc 6c 20 bd
       -0.885668 1.2079494 0.50075895 -0.039166257
0001e0 8c ba da bd 2f 16 4d be fc 75 5a 3d f8 cb 24 bd
       -0.10680112 -0.20027994 0.053335175 -0.040233582
0001f0 3a d8 ff bc 5b ee 33 bd 20 ef 28 3d 5a 9c ca 3c
       -0.031231035 -0.043928485 0.041243672 0.024732757
000200 20 21 36 3c a0 b3 91 bc cb 4f 42 3d 46 44 ec 3a
       0.011116296 -0.017785847 0.047439378 0.0018025718
000210 e3 b9 48 be 77 ca a7 be 79 2b 09 be 67 31 99 3d
       -0.1960216 -0.32771656 -0.1339549 0.07480126
000220 0d 50 10 bf ba 69 d7 3f 0c 83 86 3e 4d 71 fd 3c
       -0.5637215 1.682914 0.26271856 0.030937815
000230 1a 1a af be b8 27 4a 3d aa 83 27 3c 81 79 38 bc
       -0.341996 0.049354285 0.010224262 -0.011259438
000240 13 3d d2 bd 3b 0d 74 3e bb 8b bc 3c c5 60 35 3e
       -0.10265555 0.23833172 0.023015847 0.17712696
000250 71 2e 08 3f c6 dc 77 bf aa 2b ba bf 22 5f 01 3f
       0.53195864 -0.9682125 -1.4544575 0.50535786
000260 96 3d 21 3d 1c 74 e7 bb 01 bd e5 bd 6f 83 2d 3e
       0.039365374 -0.007063402 -0.1121769 0.16944669
000270 0f 22 9b 3d ac 2d c3 3d 02 65 f6 bd d9 5d 9f 3c
       0.075748555 0.095301956 -0.120309845 0.01945393
000280 b7 41 ae be 14 fe 8e bc 3e 3f 74 3c 51 51 40 3d
       -0.3403451 -0.017455138 0.014907656 0.04695255
000290 d6 28 0a 40 b3 8d 8a be 2d 9b 31 3e 44 be 3d be
       2.1587424 -0.27061233 0.17344351 -0.18529612
0002a0 c6 89 a4 3e 16 d3 3f 3e d2 6a 4b be 6a 98 d4 3e
       0.32136363 0.18732867 -0.19864967 0.41522533
0002b0 68 82 73 3d 90 bd 99 3d 88 3d 58 3e 2e 76 72 bd
       0.059450537 0.07506859 0.21117222 -0.059194736
0002c0 c4 8c 81 bd e0 b0 86 bd 47 cd 59 3e 87 30 1f be
       -0.06325677 -0.06576705 0.21269713 -0.15545855
0002d0 c2 53 0b bd ba f4 79 bf 7d ef 44 3e ea e9 d7 bc
       -0.034015425 -0.9763905 0.19231983 -0.026356656
0002e0 53 79 f9 be 2d 90 dd 3c 89 8c 14 bc bb ad 88 bc
       -0.48725376 0.027046287 -0.009066709 -0.016684404
0002f0 20 a4 29 3e ae be 3f bd fb 89 7a bd 5a 81 e6 bd
       0.16566515 -0.046812706 -0.061166745 -0.112551406
000300 9a 81 31 ba 81 78 19 be b2 6d 14 bd 81 64 f5 bc
       -0.00067713263 -0.14987375 -0.036237426 -0.02995515
000310 58 2d 17 bc ae 78 5e 40 c7 a6 94 be 94 cb 12 be
       -0.009227119 3.4761157 -0.2903349 -0.14335471
000320 47 e5 67 be 41 f6 78 3f 36 f3 90 bc 3e 81 ea be
       -0.22646056 0.97250754 -0.017694097 -0.4580173
000330 b2 3a 45 3f d9 fc 31 3e 34 a1 3c bf 8d 38 e0 bd
       0.77042687 0.1738161 -0.73683476 -0.10948286
000340 f6 b3 df bc 11 0f b1 3e 25 0c 91 3d b8 cf 9c 3e
       -0.027307492 0.34581807 0.070823945 0.30627227
000350 1c d3 8c bc 3e c9 b5 3e c5 75 d1 3f 3c 31 c0 bd
       -0.017190509 0.35505098 1.6364065 -0.09384391
000360 75 02 e4 3e 90 76 35 3f 69 b5 88 bb 95 28 85 3b
       0.44533125 0.70884037 -0.0041720164 0.0040636756
000370 04 d5 80 3e 57 65 0e bc 24 33 ca be dc 21 27 bd
       0.25162518 -0.0086911535 -0.39492142 -0.040803775
000380 c9 90 fe 3c 3b 62 22 bd ad f7 54 3e ea 24 8b 3c
       0.031074898 -0.03964446 0.20797606 0.016985375
000390 b7 51 26 bd 15 88 0a 3d b9 95 fa 3f 04 29 46 be
       -0.040605273 0.033821184 1.9576942 -0.19351584
0003a0 c8 a2 57 3d 30 88 2d be 97 ab 39 bf 64 0d fa bf
       0.052645475 -0.16946483 -0.7252745 -1.9535336
0003b0 e6 3e 91 bf 4f 58 0b 3e b1 c8 42 be 9e 69 73 be
       -1.134732 0.13607906 -0.1902187 -0.23770759
0003c0 b2 ae 5a 3d 97 25 ba bd 43 41 6e 3e 72 22 6f bd
       0.05338926 -0.09089201 0.23267083 -0.05838246
0003d0 58 06 03 bf aa 74 d3 be ba 08 97 be 3b 19 c2 bf
       -0.51181555 -0.41299945 -0.29498845 -1.516395
0003e0 1a 0e 7e bf ee c8 73 3f 71 f2 02 bf f5 86 06 bd
       -0.9924027 0.9522847 -0.51151186 -0.03284355
0003f0 c5 8f 40 be 03 4b 02 3e 82 ac 8d 3e 3d 75 f0 bd
       -0.18804844 0.12723927 0.27670676 -0.117411114

fcs1.bias f4 [400]
000000 ff 1c 0b 3e ee 4b 0e be 93 14 ae 3d ad 13 be bd
       0.1358528 -0.13896152 0.08500018 -0.092810966
000010 6a 5a 9c 3a 1e e4 c8 bc e3 52 a4 bc 4e f1 b0 bd
       0.0011928801 -0.024522837 -0.020059055 -0.08639775
000020 79 10 04 be 2d 6d 2e be b3 0b 12 be b0 c0 bc 3d
       -0.12896909 -0.17033835 -0.14262275 0.0921644
000030 8f da f7 bd 7a d2 6e bd cd 14 14 3e aa 5e 4c 3d
       -0.121022336 -0.058306195 0.1446106 0.049894966
000040 c4 29 20 3e 38 f9 29 3e 17 f7 b4 3d 82 60 d7 3d
       0.15640932 0.16598976 0.08836191 0.10516454
000050 e5 ba 0b be 15 5e 9c bd eb ce 1a be f4 61 31 bd
       -0.13645513 -0.07635132 -0.15117995 -0.043306306
000060 7c d6 dc 3d 00 d3 a0 bc 44 27 3b 3b 7d f4 18 be
       0.10783097 -0.019631863 0.002855734 -0.14937015
000070 ab 86 22 3d ff 7e f3 3d 13 ef 2e 3d 78 c3 9f bd
       0.03967921 0.11889457 0.042708468 -0.078009546
000080 64 94 8e 3d 43 72 e9 bb de 25 d1 3d 7b 17 fa 3d
       0.06961897 -0.0071242168 0.10212301 0.1221151
000090 07 bf be bd 35 c7 e1 3c d4 34 5a bd b5 2e 39 bd
       -0.09313779 0.02756081 -0.053273037 -0.04521056
0000a0 cd bc 2c be a0 5c 24 3e 09 0b 7f 3d 85 a7 6a bc
       -0.16868897 0.16050959 0.062266383 -0.014322166
0000b0 8b a4 09 be 46 4e af bd db 04 8f 3d aa d4 97 3d
       -0.13441674 -0.08559851 0.06983348 0.07413609
0000c0 2c b9 ea 3d 68 ef af bd 38 f1 06 3e 76 c3 a3 bd
       0.114611 -0.08590585 0.13177955 -0.079962656
0000d0 8c ca a9 3d 41 5d b3 3c 3f ae 20 3c 7c 73 4d 3c
       0.08290586 0.021895053 0.0098071685 0.012539741
0000e0 9b 7d 22 be ff 56 cd 3c d8 73 12 3e e4 88 1b bd
       -0.15868227 0.025065897 0.14302003 -0.037972346
0000f0 48 df e0 3d e0 eb 0e 3d 1b e2 b4 3d 07 22 b9 bd
       0.109800875 0.034892917 0.08832189 -0.09039693
000100 b6 3e 9e 3d 59 3e 0d 3e b2 0c bc bd 02 5e 17 3e
       0.07726805 0.13793315 -0.09182109 0.14781955
000110 0f be 62 bd a3 a7 c7 bc 00 86 22 be 88 2f d0 3d
       -0.055357035 -0.024371928 -0.1587143 0.10165316
000120 47 5e 31 3d 33 10 16 3e 93 27 c0 bd 51 f1 f5 3c
       0.0433028 0.14654617 -0.09382548 0.030022295
000130 50 1d 78 bc 91 7c 18 3e 7d 90 3a 3d 0f 28 06 be
       -0.015143707 0.14891268 0.04554795 -0.13101219
000140 44 87 cd 3d 5a b0 06 3e bf 0a 32 3d bd 1d 6a 3d
       0.100355655 0.1315321 0.04346728 0.057157267
000150 64 46 bf 3d d8 6f 58 3d ef cb a9 3d b1 4d 2c 3e
       0.09339598 0.052841038 0.0829085 0.16826512
000160 fa 40 72 bd f4 ce 09 be aa fe a8 3b 60 e6 7b bd
       -0.059143998 -0.13457853 0.0051573114 -0.061499
000170 20 ec a1 3a 8f af a5 3d 7f 05 46 bd 4a 17 4a bc
       0.0012353696 0.08090126 -0.048345085 -0.012334654
000180 72 42 a0 3d 0b c7 04 be f7 e5 a0 bd 0d 47 cd 3c
       0.078251734 -0.12966554 -0.07856362 0.025058294
000190 28 da e1 3d 72 b3 ae 3b f1 5f c6 3c 10 3c 10 3e
       0.11027938 0.00533145 0.02421567 0.14085412
0001a0 e6 f8 2d 3e 1a 8f 04 bc e7 9c 31 bd 23 77 20 bd
       0.16989478 -0.008090759 -0.043362524 -0.039176118
0001b0 37 19 97 bd bd e5 ef 3d 13 a9 58 bd 74 b3 b8 3d
       -0.07377856 0.11713741 -0.052895617 0.09018603
0001c0 23 90 ef bd e5 87 c9 bd fa 7c ef 3d 3f c0 92 bd
       -0.11697414 -0.09840373 0.11693759 -0.07165574
0001d0 cb a9 8c bd 2c 0b 5b bd 61 7f 0d bd 86 3b 23 bd
       -0.06868323 -0.05347745 -0.034545306 -0.039851688
0001e0 a1 62 70 3c 44 8b 19 bd ff 46 50 3d 9d 69 ff 3d
       0.014671952 -0.03748633 0.050848957 0.12471316
0001f0 a9 7a 07 be ac 48 1a 3e f0 cb cd 3d 3d 0d 5e 3d
       -0.13230385 0.15066785 0.100486636 0.054211844
000200 45 f0 c8 ba 3e b2 0a 3e 85 e4 ef 3d 6b 8d d3 bd
       -0.0015330395 0.13544556 0.117135085 -0.10329708
000210 fe e2 0a 3d 2a 45 f4 bd ff 55 f3 3d 1b 2a bb 3d
       0.033907883 -0.119272545 0.11881637 0.0913889
000220 76 53 85 3c 8f 56 0d 3e 8a 0f 0a 3d 2b 80 76 bd
       0.016275149 0.1380255 0.033706225 -0.060180824
000230 bb c8 09 bd a4 db 0d be 36 e2 98 3d 70 55 08 3c
       -0.033638697 -0.13853317 0.07465021 0.008321151
000240 e9 a4 40 3d 6d d0 c4 bd 14 6b e6 3c 5b 90 84 ba
       0.04703227 -0.096100666 0.02812723 -0.0010113822
000250 53 88 1e 3e c4 5c c8 3d 3e 43 1a 3e 77 37 2e be
       0.15481691 0.09783319 0.15064713 -0.17013346
000260 c6 df 62 bd 40 6f ef bb 3f fa 25 3e 4f e2 00 3d
       -0.05538919 -0.007306963 0.16208743 0.031465825
000270 29 8d 8a bd c7 c2 e0 3d 23 b3 18 be ae 4d 83 3d
       -0.067652054 0.10974651 -0.14912085 0.064113006
000280 8f 0b 24 be 96 56 07 3e b3 5a 2c 3e bf 74 22 3c
       -0.16020034 0.13216624 0.16831474 0.00991553
000290 c5 b2 bd 3d 2b ac 19 3e ff 88 18 be 8f ad 90 bd
       0.09262613 0.15007083 -0.1489601 -0.07064354
0002a0 93 c7 23 bd ec c7 89 bd 4e d0 2b 3e df 59 d7 3d
       -0.03998525 -0.06727585 0.1677868 0.105151884
0002b0 6d 59 c1 3d ad 77 10 3e 8e 16 47 bd 22 0f 76 bb
       0.09440885 0.14108153 -0.048605494 -0.003754564
0002c0 de 74 bd 3d 0f 89 64 3d 74 76 69 bd 2e 0d b8 3b
       0.09250806 0.05579477 -0.05699773 0.0056168055
0002d0 04 49 1f 3e dd 8f 28 be 94 b7 2f 3e 75 a0 12 be
       0.15555197 -0.1646113 0.17159873 -0.14319022
0002e0 dc 27 7a 3c 43 4b 05 3d 74 10 29 be 3b 8a 98 bd
       0.015268292 0.03254248 -0.16510183 -0.0744824
0002f0 5d 59 be 3d e8 24 2e be c8 b6 89 bd e6 6c a2 bd
       0.092943884 -0.17006266 -0.06724316 -0.07930927
000300 8c e8 43 3c 07 a1 05 be e4 2d df 3d b8 14 05 be
       0.011957299 -0.13049708 0.10897425 -0.12996185
000310 39 90 9a bd 8d 6f fc 3d eb ef 26 3e 1e 64 c1 3c
       -0.075470395 0.12325964 0.16302459 0.02360731
000320 56 a1 a7 bd d0 08 54 3c c7 19 92 bd 44 e2 16 3e
       -0.08185069 0.012941554 -0.07133823 0.14734751
000330 0c 38 81 bd 52 09 ab 3c ce c3 86 3c 35 cf 2f be
       -0.06309518 0.020878468 0.016450789 -0.17168887
000340 8b 41 5b bd f5 13 b6 3d 9d f9 90 3c b1 bc ea 3c
       -0.053529304 0.08890525 0.01769715 0.028654428
000350 00 03 b7 bd 4f ab 1c 3e 9e 5c 0b be 54 da 02 be
       -0.08936119 0.15299724 -0.1360955 -0.12778598
000360 7c 85 07 bd 05 75 bc 3d 00 30 dc bd 27 5c 5b bd
       -0.033086285 0.09202007 -0.10751343 -0.05355468
000370 36 c0 0f 3d 0f ce 72 3d f1 24 64 bd 79 eb c4 3d
       0.035095416 0.059278544 -0.055699293 0.09615225
000380 75 8b cc 3d 5f 95 06 3d 64 a6 da 3c 1f 96 20 3e
       0.09987537 0.032857295 0.02669067 0.15682267
000390 5d 0a 86 3d 3a c8 0b be 4e a1 06 bd d9 f2 88 3d
       0.065449454 -0.13650599 -0.032868676 0.066869445
0003a0 ca 37 88 bd f6 8e f2 3d 20 3e 46 bd b9 56 44 3d
       -0.06651266 0.11843674 -0.04839909 0.047934268
0003b0 9d 16 72 3c 7f 9b d5 3b 7c 35 5c bc 2a 9a b9 bb
       0.014775899 0.0065187807 -0.013440486 -0.0056641297
0003c0 6d 23 fd bc 61 fb 80 bc 76 93 70 bd b5 17 e3 3d
       -0.030900681 -0.015744867 -0.05873438 0.11088506
0003d0 08 bc b2 3d 57 fc 07 3e 83 86 fa 3d 91 0b cd 3d
       0.0872727 0.13279854 0.12232687 0.10011972
0003e0 c9 a8 1d be 9b 82 0b 3e 2f 5a 23 3e 18 b3 cc bc
       -0.15396418 0.13624041 0.15952371 -0.024987742
0003f0 2f ef 21 bd 2e 51 52 bd cb b5 c2 bd 87 d1 1b 3d
       -0.039534744 -0.05134695 -0.095073305 0.038041618

bn1.weight f4 [400]
000000 57 48 00 3f 87 bc e8 3e 74 f5 0d 3f 6c 2c d5 3e
       0.5011038 0.45456335 0.55452657 0.41635454
000010 c9 e8 ed 3e a0 b5 f4 3e 52 21 d1 3e de c9 07 3f
       0.46466663 0.4779482 0.40845734 0.530424
000020 fd ef ea 3e 07 c7 0e 3f 68 9c 19 3f 02 38 90 3e
       0.45886222 0.5577244 0.6000428 0.2816773
000030 32 01 f4 3e f0 31 fc 3e 59 af c4 3e f3 9f 2a 3f
       0.47657162 0.4925685 0.3841503 0.66650313
000040 6b ce 83 39 08 e9 d7 3e 80 3e 41 3f 19 6e f1 3e
       0.0002514006 0.42169976 0.7548599 0.4715431
000050 57 46 c9 3e 60 21 cf 3e b1 ce 09 3f 0e d3 15 3f
       0.39311478 0.4045515 0.5383101 0.5852517
000060 4b 91 ef 3e 93 4b 18 3f 49 a8 37 3f 03 a0 ed 3e
       0.46790537 0.5949032 0.7174116 0.46411142
000070 c5 79 c1 3e 69 d7 ba 3e a2 91 16 3f 2a 3c eb 3e
       0.37788215 0.3649247 0.5881597 0.4594434
000080 c3 95 51 3f 2b e6 0b 3f 4c c6 04 3f f4 42 ff 3e
       0.81869143 0.54648083 0.51865077 0.4985577
000090 08 3e 9e 3e 7a 5a 01 3f 8f 2c 1e 3f f3 fc 17 3f
       0.309067 0.5052868 0.6178674 0.59370345
0000a0 b1 01 ab 3e 78 5d dc 3e b1 e5 ca 3e a6 0b 0c 3f
       0.33399728 0.4304006 0.39628366 0.54705274
0000b0 27 07 09 3f ac bf ec 3e 2c bf f8 3e 21 d6 00 3f
       0.5352654 0.46239984 0.48583353 0.50326735
0000c0 97 8d e8 3e eb c0 f1 3e ff 41 e2 3e d8 77 2c bc
       0.45420524 0.47217497 0.44190976 -0.01052662
0000d0 69 2b d7 3e ea 41 da 3e 16 a1 3c 3f 50 2b b9 3e
       0.42025307 0.42628413 0.736833 0.36165857
0000e0 81 1c d8 3e 7e f4 03 3f b7 cd d5 3e a2 54 2e 3f
       0.42209247 0.5154494 0.4175851 0.6809789
0000f0 a0 fd 8d 3e 01 58 dd 3e fa 27 cb 3e 80 fa 0b 3f
       0.27732563 0.43231204 0.39678937 0.5467911
000100 d2 d9 12 3f ca 62 26 3f fa ed 2f 3f 60 fe db 3e
       0.5736362 0.6499449 0.687225 0.4296751
000110 cf a4 f6 3e 6d 75 2d 3f a4 9d d2 3e 5e 05 23 3f
       0.48172614 0.677573 0.41135895 0.63680065
000120 cc 13 f4 3e 5c 15 02 3f 3a 43 fe 3e ec ef eb 3e
       0.47671354 0.5081384 0.49660665 0.46081483
000130 08 2b a3 3e 7b 26 e9 3e 34 7d e7 3e c6 19 0a 3f
       0.31868768 0.4553717 0.4521271 0.5394558
000140 c7 bb d5 3e d1 39 cf 3e 64 31 03 3f 99 f1 4e 3f
       0.41744825 0.40473798 0.5124724 0.808374
000150 e2 f6 cf 3e e6 cf 0b 3f 9e 21 26 3f 85 09 27 3f
       0.40618044 0.546141 0.64895046 0.652489
000160 26 0d 90 3f 93 61 ea 3e 08 b8 09 3f 7e 6c d2 3e
       1.1254013 0.45777568 0.53796434 0.41098398
000170 17 38 f9 3e d7 00 f8 3e ca ad f0 3e 5a 73 c5 3e
       0.48675606 0.4843814 0.4700759 0.3856457
000180 80 02 d7 3e 19 03 38 3f fb 6a a3 3e 2d f7 bc 3f
       0.41994095 0.71879727 0.31917557 1.4762932
000190 e2 07 e2 3e 65 03 0a 3f 8a cc e7 3e 51 56 0c 3f
       0.4414664 0.5391143 0.45273238 0.5481921
0001a0 6c 1c dd 3e 95 f2 1e 3f 51 cb 19 3f 23 51 10 3f
       0.43185747 0.620889 0.6007586 0.56373805
0001b0 5f 98 12 3f 30 b3 0f 3f 49 9d c0 3f 93 37 41 3f
       0.5726375 0.56132793 1.5048 0.75475425
0001c0 c7 5b c8 3e f1 4a 41 3f 2f 28 30 3f 3b c1 b8 3e
       0.3913252 0.75504977 0.68811315 0.36084923
0001d0 f8 d9 e3 3e 2e 7a e0 3e ea e1 d8 3e 63 cf b0 3e
       0.44502234 0.43843216 0.4235986 0.34533224
0001e0 41 8c 91 3f f6 17 c5 3e 3a 51 da 3e 05 36 15 3f
       1.1370927 0.38494843 0.42640096 0.5828555
0001f0 6f 7c 1e 3f f0 80 d8 3e 39 89 e6 3e 8b 7e 05 3f
       0.6190862 0.42285872 0.45026568 0.52146214
000200 17 0d 51 3f d9 72 d3 3e 60 0c 2d 3f b3 8e e5 3e
       0.816606 0.4129856 0.6759701 0.44835433
000210 99 ef ef 3e 1b f9 da 3e 74 01 da 3e 5f ed db 3e
       0.46862486 0.42768177 0.42579234 0.42954537
000220 eb c4 59 3f 5b 24 07 3f 71 5d e4 3e 6b ad 05 3f
       0.850661 0.5278985 0.4460254 0.5221774
000230 cb a4 87 3e b5 be 1c 3f 1e 81 dc 3e 60 ab 6e b9
       0.26492915 0.61228496 0.4306726 -0.00022761291
000240 33 11 ff 3e bc 00 16 3f 06 b6 be 3e 73 c2 dd 3e
       0.4981781 0.5859487 0.37248248 0.43312415
000250 31 5c 12 3f a9 e9 19 3f f8 bd 69 3f b1 61 15 3f
       0.5717192 0.6012216 0.91305494 0.5835219
000260 60 65 c2 3e 05 7b fa 3e ee 80 04 3f 7c 67 e5 3e
       0.37967968 0.4892198 0.5175923 0.44805515
000270 b0 da 0d 3f 4e 0a e0 3e bf 2d 12 3f d8 bd 0b 3f
       0.55411816 0.43757862 0.57101053 0.54586554
000280 96 13 10 3f 0a 5b f9 3e f7 f8 0a 3f 1a 94 f4 3e
       0.56279886 0.4870227 0.5428614 0.47769243
000290 f1 99 10 3f d2 0c fa 3e 6d 91 28 3f 87 ec fc 3e
       0.56484896 0.48837906 0.658469 0.49399206
0002a0 38 bf ab 3e 3e 23 05 3f ac 35 09 3f 02 6a dd 3e
       0.33544326 0.520069 0.5359752 0.4324494
0002b0 87 b0 2a 3f 26 db c6 3e 1f 00 00 3f 16 4c 08 3f
       0.6667561 0.38839072 0.50000185 0.532411
0002c0 1c 8f fe 3e fb a1 03 3f 96 01 39 3f 70 6b 09 3f
       0.4971856 0.5141904 0.72268045 0.5367956
0002d0 77 0c 16 3f 62 23 03 3f 8a 7d da 3e 8e c4 2c 3f
       0.5861277 0.51225865 0.42673904 0.6748742
0002e0 cb 14 0c 3f b3 76 0e 3f 82 94 f6 3e 39 ed 18 3f
       0.5471923 0.5564987 0.48160177 0.59736973
0002f0 bc 5f 15 3f 8c 05 da 3e cb 6e d5 3e f4 f1 0b 3f
       0.58349204 0.42582357 0.4168609 0.54666066
000300 68 84 61 3f 1b ed 1d 3f e8 d8 98 3e 34 d3 11 3f
       0.8809266 0.6168992 0.29852986 0.56962895
000310 11 64 b2 3e 99 4c ca 3e 3f d3 f5 3e ff dd e7 3e
       0.3484197 0.39511564 0.4801273 0.45286557
000320 f3 e1 04 3f a7 49 b0 3e e1 44 e1 3e d3 b8 1a 3f
       0.5190727 0.34431192 0.43997863 0.6043827
000330 9e 9f 07 3f 1f bc b0 3e ac 37 14 3f 20 b5 d6 3e
       0.5297793 0.34518525 0.5789745 0.41935062
000340 a3 c3 ec 3e 35 a3 a5 3e 58 fb d8 3e 02 68 91 3e
       0.4624301 0.3235108 0.4237926 0.28399664
000350 b9 97 54 3e ec 4a d3 3e e3 39 9a 3e a1 84 c5 3e
       0.20761003 0.41268098 0.3012229 0.3857775
000360 b4 21 1c 3f 54 f4 f9 3e ab 9c cc 3e 5c 87 a9 3f
       0.60988927 0.4881922 0.39963278 1.3244433
000370 b5 fa 06 3f 31 b3 11 3f fb a4 bb 3e be 92 01 3f
       0.527263 0.5691405 0.36649308 0.50614536
000380 52 7e 08 3f e2 22 13 3f 9d ef e3 3e 34 28 dc 3e
       0.5331775 0.574751 0.44518748 0.42999423
000390 20 3f 24 3f a7 6c 5a 3f 1b 56 f1 3e 3a d9 c8 3e
       0.6415882 0.8532204 0.47136006 0.3922823
0003a0 50 16 23 3f 1c d8 9b 3e f2 c8 48 3f 8c f5 49 3f
       0.6370592 0.30438316 0.7843162 0.788903
0003b0 75 1d f8 3e 88 a2 10 3f 6c 1d 00 3f 14 b6 d9 3e
       0.48459974 0.56498003 0.50044894 0.42521727
0003c0 23 a0 ee 3e 07 50 6c 3f 64 0e e4 3e ef 90 13 3f
       0.4660655 0.9230961 0.4454223 0.57643026
0003d0 30 bf ec 3e 74 7f b1 3e c6 d3 e3 3e 30 59 8d 3e
       0.46239614 0.34667552 0.44497508 0.27607107
0003e0 93 44 2b 3f 8e a2 b0 3e 10 a8 ad 3e 05 2c f1 3e
       0.6690151 0.3449902 0.33917284 0.47103897
0003f0 70 81 e1 3e a1 d0 59 3e 48 64 09 3f 82 52 c5 3e
       0.44044065 0.21270992 0.5366864 0.3853951

bn1.bias f4 [400]
000000 ae 92 56 be 62 3f 09 bf 3a 2b 47 bf de 2b 88 be
       -0.20954391 -0.5361234 -0.77800333 -0.26595968
000010 3d 88 55 be ac bd 97 be 77 2e 2c be a8 6f 14 bf
       -0.20852752 -0.29636896 -0.168146 -0.57982874
000020 de b8 0f bf f7 8d 04 bf 8b 05 23 bf ae 51 80 be
       -0.5614146 -0.5177912 -0.6368033 -0.25062317
000030 d5 ca f2 be 54 4d 0d bf d1 0d da be 9b 0b ee be
       -0.47420374 -0.5519612 -0.42588666 -0.4649323
000040 f1 5f 09 bb ca 24 06 bf 5e 8a ea be f5 23 e3 be
       -0.0020961727 -0.52399886 -0.4580869 -0.4436337
000050 18 aa f3 be 61 ea 8a be 4b 9b 2c bf 36 b5 0e bf
       -0.4759071 -0.27131942 -0.6742446 -0.55745256
000060 e4 37 07 bf d5 ad 11 bf f6 e4 07 bf d9 e8 9e be
       -0.5281966 -0.5690587 -0.5308374 -0.31037024
000070 a8 01 37 be 94 e6 e7 be 88 77 47 bf 71 60 fc be
       -0.17871726 -0.45293105 -0.77916765 -0.4929233
000080 e4 58 eb be 32 3f 7c be 7b b8 14 bf ac dd de be
       -0.45966256 -0.24633482 -0.58093995 -0.43528497
000090 3b db b7 bd 12 8e 18 bf 11 af 28 bf b5 fa 43 bf
       -0.08977362 -0.5959178 -0.6589213 -0.76554424
0000a0 3b 41 1a be 9e ae dd be b3 4e 7d be 8f 18 8d be
       -0.15063946 -0.43297285 -0.24737053 -0.275578
0000b0 c0 fe 01 bf 5c 46 db be dc 1b 3b bf 69 9e ee be
       -0.5077934 -0.42827117 -0.73089385 -0.46605232
0000c0 4c f4 dd be 9c 8b 07 bf b3 b1 db be ba 48 c3 bd
       -0.43350446 -0.529474 -0.4290901 -0.09535356
0000d0 8f 5e cf be 3c 62 9a be 28 c6 5f bf 66 15 4a be
       -0.4050183 -0.30153072 -0.8741174 -0.19734725
0000e0 4e 6b 06 bf f7 0f ed be 85 c2 4d be 34 17 2d bf
       -0.52507484 -0.46301243 -0.20093735 -0.6761353
0000f0 8c 80 86 be 8e 14 89 be 9b 1a 2c be 0e d6 a4 be
       -0.26269948 -0.26773494 -0.16807024 -0.3219456
000100 9b 1f 20 bf 09 06 d0 be 72 e5 47 bf ed 80 11 be
       -0.62548226 -0.40629604 -0.7808448 -0.14209338
000110 22 a9 f9 be 1c 6b 89 be fa ef d4 be 8a 1d f4 be
       -0.4876185 -0.2683953 -0.41589338 -0.47678787
000120 27 fe 85 be fe 88 13 bf 2b 76 b2 be 95 4c 96 be
       -0.26170465 -0.5763091 -0.3485578 -0.29355302
000130 33 92 91 bd bb a3 aa be ac 62 18 bf 45 84 0a bf
       -0.071079634 -0.3332804 -0.5952556 -0.5410808
000140 85 8c ec be 1a f2 9e be 3f c5 ab be 3c 35 41 bf
       -0.46200958 -0.31044084 -0.33548924 -0.75471854
000150 1d f3 f9 bd dc 16 98 be e8 3b 12 bf 6b 1f c0 be
       -0.12204573 -0.2970494 -0.5712266 -0.3752397
000160 d6 cb 3e bf 28 54 87 be a4 a3 09 bf d5 db c2 be
       -0.7452978 -0.26431394 -0.5376532 -0.38058344
000170 75 b1 d9 be 38 fe ca be fb 0a df be 7e 75 dc be
       -0.425182 -0.3964708 -0.43563065 -0.4305839
000180 88 3c e1 be af b2 eb be 01 50 92 be 26 30 7d be
       -0.43991494 -0.46034762 -0.28576663 -0.24725398
000190 25 4c fe be cb de 54 be 27 d2 08 bf b0 5a 34 bf
       -0.4966747 -0.20788114 -0.5344567 -0.7045088
0001a0 c0 9d 93 be ed a8 3b bf 00 95 f2 be e8 ce 23 bf
       -0.2883129 -0.73304635 -0.47379303 -0.6398759
0001b0 a6 bf 1b bf 73 85 04 bf d5 dd ff be fc b7 79 bd
       -0.6083931 -0.5176613 -0.49973932 -0.060966477
0001c0 68 50 d1 bd 7f ee 0b bf cf 50 2e be af 30 a0 be
       -0.102204144 -0.5466079 -0.17023014 -0.31287143
0001d0 48 69 92 be 5b a5 cf be 78 ac 8c be 65 b2 5c be
       -0.28595948 -0.40555844 -0.27475333 -0.21552427
0001e0 dd 22 fa be 7f f0 2c bf 84 f1 36 be a0 62 3b bf
       -0.48854724 -0.6755447 -0.17865568 -0.73197365
0001f0 ed 19 1a bf 3f 13 17 be 0c cd b1 be b5 08 d7 be
       -0.6019581 -0.14753436 -0.3472675 -0.4199883
000200 b7 b8 0e bf 61 e1 ad be d2 f7 1b bf bd b8 2b be
       -0.557506 -0.33961013 -0.6092502 -0.16769691
000210 8b 62 37 bf a3 a7 9b be 74 84 ea be e5 0f ec be
       -0.7163474 -0.30401334 -0.4580418 -0.46105877
000220 b0 c3 e4 be dd 89 c3 be 36 21 bc be 4c 06 d0 be
       -0.44680548 -0.3819112 -0.36744088 -0.40629804
000230 33 61 42 be d0 74 0f bf 41 c6 c9 be f1 60 69 bb
       -0.18982391 -0.56037617 -0.39409068 -0.003561076
000240 c7 37 fb be 07 1a 5a bf df 7a ab be 5b 07 9f be
       -0.49065992 -0.85195965 -0.3349218 -0.310603
000250 2b 74 b1 be 0f 24 2e bf d8 85 b8 be 90 06 07 bf
       -0.34658942 -0.6802377 -0.36039615 -0.5274439
000260 51 e9 82 be 13 fc 06 bf 96 e9 b6 be 7c cb 1b be
       -0.2556863 -0.52728385 -0.35725087 -0.15214342
000270 6a 7d 97 be 04 7a c5 be 09 99 1f bf 51 d5 01 bf
       -0.2958787 -0.38569653 -0.6234289 -0.5071612
000280 81 d1 ba be 68 11 aa be d9 98 06 bf 9b 2d 3d be
       -0.36487964 -0.33216405 -0.52576977 -0.18474428
000290 01 74 fd be 64 91 f0 be 14 d4 e6 be c7 8a 1f bf
       -0.49502566 -0.46985924 -0.45083678 -0.6232113
0002a0 0f b5 b1 be a4 d0 a3 be 1a 32 e9 be f5 e5 a7 be
       -0.3470845 -0.31995118 -0.45546037 -0.3279263
0002b0 10 20 fb be 13 bf e0 be 5d 90 21 bf 39 8e ad be
       -0.490479 -0.43895778 -0.63110906 -0.3389757
0002c0 0d c8 42 be 9b 24 18 bf a4 46 36 bf c3 43 2b bf
       -0.19021626 -0.59430856 -0.7120154 -0.6690027
0002d0 26 f2 1a bf a6 aa d5 be c1 8f 01 bf 9f ae 46 bf
       -0.6052574 -0.41731757 -0.50609976 -0.776102
0002e0 68 39 3a bf 8a af 1e bf 69 74 8a be c1 6f 2b bf
       -0.72743845 -0.619866 -0.2704194 -0.669674
0002f0 aa 66 ff be 4c 45 b7 be c3 1d eb be 6d 9e e5 be
       -0.49883014 -0.35795057 -0.45921144 -0.44847432
000300 55 55 1e bf b1 a6 f8 be b1 22 74 be e2 76 fd be
       -0.61848956 -0.48564675 -0.23841359 -0.49504763
000310 8e 4c 9c bd 33 01 ca be 3c 0b 95 be cd ce b0 be
       -0.07631789 -0.3945404 -0.29110134 -0.34532776
000320 47 c2 14 bf 3d 39 60 be e5 fe 30 be b6 64 07 bf
       -0.58108944 -0.21896835 -0.17284735 -0.5288805
000330 65 f4 36 bf 6d 13 83 3d 03 42 e7 be 06 02 ad be
       -0.71466666 0.064001895 -0.4516755 -0.33790606
000340 1b e1 20 bf 8c a0 c2 bd 71 d4 20 be d2 ec 23 be
       -0.62843484 -0.09503278 -0.1570604 -0.16008309
000350 49 f1 a4 3d bd 37 b3 be 3d cb 9d be 58 d7 9c be
       0.08053834 -0.35003462 -0.3081912 -0.30633044
000360 38 a8 16 bf f1 43 1d be 88 0c cc be b6 26 6a bf
       -0.5885043 -0.15357949 -0.3985331 -0.9146532
000370 ad e5 11 bf f7 b3 f8 be a8 66 b8 be 6c 2f 07 bf
       -0.5699108 -0.48574802 -0.3601582 -0.52806735
000380 78 45 1b bf bf df fd be 7e 99 dc be 74 e0 d5 be
       -0.60652876 -0.49584767 -0.43085855 -0.41772807
000390 da c9 26 bf f9 e9 fb be d5 25 fa be ad 1a 3b be
       -0.6515175 -0.49201944 -0.4885699 -0.18271895
0003a0 1e 47 2f bf 07 93 c0 3c 76 06 27 bf 4b a7 e0 be
       -0.6846789 0.023507608 -0.65244234 -0.43877634
0003b0 7d ce 06 bf b2 2b c0 bd fb 51 97 be a5 e8 9a bd
       -0.52658826 -0.09383334 -0.29554734 -0.07563905
0003c0 fc 8d 6b be 23 df 12 bf 84 3b e9 be 94 10 f0 bd
       -0.23003381 -0.5737173 -0.4555322 -0.11721912
0003d0 db f8 c2 be 40 ca 8f be 77 09 0e be c4 7e 53 bd
       -0.38080487 -0.28083992 -0.13870798 -0.051634565
0003e0 dd b2 15 bf 52 94 6a be 0c 88 8d be d6 5b c1 be
       -0.5847605 -0.22908142 -0.27642858 -0.37765378
0003f0 78 99 bd be 36 48 31 3e 3d b4 17 bf 1c a8 14 be
       -0.3703115 0.17312703 -0.59259397 -0.14517254

bn1.running_mean f4 [400]
000000 f6 1c f7 3e 3e 5b 76 bf 4a 14 39 c0 8e 8d 06 3f
       0.48264283 -0.96232975 -2.8918633 0.52559745
000010 27 0a 8b 3f e7 ee a0 3c 33 9b 8f 3f 1b 4e 8b 3f
       1.0862473 0.019645168 1.1219238 1.0883211
000020 62 8b 19 c0 b6 9a b4 bf f0 20 8a 3f f7 34 02 3e
       -2.3991323 -1.4109714 1.0791302 0.12715517
000030 c4 a6 44 bf 8c 2a 6d 3f 58 9b b7 bf a7 e6 ab 3e
       -0.76816964 0.92643046 -1.4344282 0.3357441
000040 4e 02 86 3d 0a 6e 36 bf 17 90 4a 3f 83 10 93 bf
       0.06543408 -0.71261656 0.79126114 -1.1489414
000050 89 bd 19 bf c7 83 90 3f f9 89 01 3f 19 ef 95 3f
       -0.6005483 1.1290215 0.50601155 1.1713592
000060 e0 0a 2a be 67 17 89 bf d9 15 fc 3e 30 90 f3 bf
       -0.16605711 -1.0710267 0.49235418 -1.9028378
000070 2b 27 d2 be da 78 20 40 1f 1b f0 be 3a 3e e5 be
       -0.41045508 2.5073762 -0.46895692 -0.44774038
000080 02 b9 51 3e e6 20 23 3f d6 2e 0a c0 dc 4b 22 bf
       0.20480731 0.63722074 -2.1591086 -0.63397
000090 ef df e8 bf bd 00 bb bf b1 43 9d be bb 78 af bf
       -1.8193339 -1.46096 -0.30715707 -1.3708719
0000a0 f9 26 06 40 eb 94 9c 3f 0d 43 85 3f 7d 50 33 3f
       2.0961287 1.2232946 1.0411087 0.7004469
0000b0 ce 96 0c c0 bd 37 0e bf 54 0c 01 c0 69 d9 29 3f
       -2.1967044 -0.555538 -2.0163774 0.66347367
0000c0 dd 68 43 be d4 ba de 3e 50 4a 26 bf c1 aa 93 be
       -0.19082971 0.43501914 -0.6495714 -0.28841212
0000d0 0d 5a 9d be 35 83 bf 3e 78 05 76 bf 31 e4 2d 3e
       -0.30732766 0.3740479 -0.96102095 0.1698158
0000e0 8d f6 2a c0 2c 5d 9c bf f4 2b bc 3e 1d 9a 64 3f
       -2.6712983 -1.2215934 0.36752284 0.8929766
0000f0 be 2a 80 bf d2 16 6c 3f 83 c7 a8 3f b9 bf 21 bf
       -1.0013044 0.9222232 1.3185886 -0.6318317
000100 ca ee d0 3d 50 6d db bd ab 04 e0 3e 16 d1 c1 3f
       0.102017954 -0.10714209 0.4375356 1.5141933
000110 cc 4d 65 c0 25 4e 8a be 64 a3 a6 bf b1 e2 1f be
       -3.5828733 -0.27012745 -1.3018613 -0.1561382
000120 e1 a3 8b bf 05 47 44 bf ed 28 d9 3f 2f b7 90 3e
       -1.0909387 -0.7667087 1.6965615 0.28264758
000130 e6 1f 4c 3d fd 10 f8 be db 76 ec be fc 1b 86 bf
       0.04983511 -0.4845046 -0.4618443 -1.047729
000140 11 cf 95 be cd 9a cb 3f bc 84 e0 3e ec 0b 09 3f
       -0.29259542 1.5906616 0.43851268 0.53533816
000150 11 11 80 bf 44 1f 87 3f d1 dc c1 3f cf 6a 63 3f
       -1.0005208 1.0556417 1.5145513 0.8883485
000160 0d 15 66 be ad ee 80 bf bd 77 bf be 79 41 00 c0
       -0.22468968 -1.0072838 -0.3739604 -2.0039961
000170 df d2 14 be 80 74 a7 bf 1f 5e 9d bf 54 75 fa be
       -0.14533566 -1.3082428 -1.2294348 -0.4891764
000180 d9 5a 05 bf 5b cb 3b 3e 6d 52 e4 bf 39 21 a0 3d
       -0.5209175 0.18339293 -1.7837654 0.07818837
000190 4c 64 c8 3f 5c ec 0b be a8 a0 6c be 6c 3c cf 3f
       1.5655608 -0.13664383 -0.2310816 1.6190314
0001a0 8c f1 34 3e 27 71 2d c0 80 18 d5 be 35 0e 24 bf
       0.17670268 -2.7100313 -0.41620255 -0.6408418
0001b0 ea 0e 25 bf 3c f9 23 bf 00 fe a7 3e 5d 40 9c 3e
       -0.6447588 -0.64052176 0.32810974 0.30517855
0001c0 40 4a b1 3f 6e 99 fb 3e 75 8f d1 3e e4 b1 93 3e
       1.3850784 0.49140495 0.40929762 0.28846657
0001d0 ba af 14 3f 15 2e d9 bf 38 db a5 3f ff 57 9c 3f
       0.5808064 -1.6967188 1.2957525 1.2214354
0001e0 ab 1b 9e be 44 20 a7 bf c8 ba 7d 3f 1b 3b 76 bf
       -0.30880484 -1.3056722 0.9911313 -0.9618394
0001f0 09 35 0f 3f 5a ad a8 3e 9b 09 42 be fa 32 0c 40
       0.559403 0.32944757 -0.18948977 2.1906114
000200 15 0b ab bd 9d 6e 18 bf ca 16 42 3e f3 61 92 3f
       -0.08351723 -0.5954378 0.18954006 1.1436142
000210 45 c3 0e c0 df 3b d6 3e a0 d3 1e c0 85 eb 5f be
       -2.2306683 0.41842553 -2.4816666 -0.21867187
000220 e4 99 34 3e 51 2a 42 3f ac 1f 36 bf 1d 9e 30 c0
       0.1763683 0.7584582 -0.7114208 -2.7596505
000230 94 9d 35 3d 26 d2 7a 3f ae 21 34 bf b1 54 f5 3c
       0.04433973 0.9797691 -0.7036389 0.02994761
000240 d8 c8 1b c0 25 29 b6 bf b8 45 f3 3e a8 5d 3f bf
       -2.4341335 -1.4231306 0.4751413 -0.74752283
000250 6f 1c 73 3f d5 90 95 be be 8c f4 be a8 d0 97 bf
       0.9496526 -0.2921206 -0.47763628 -1.1860552
000260 0b 94 4e bf 0f ed 1f 3f 56 b6 b3 3f 9d 81 98 3e
       -0.80694646 0.624711 1.404002 0.29786387
000270 98 ca 30 40 1f 5f 82 bf fd 54 bd bf 92 ce f7 3f
       2.7623653 -1.0185279 -1.4791561 1.9359915
000280 ff 4e 1b be 10 1c 21 3f 22 f7 a0 bf 1b fe 9f 3f
       -0.15166853 0.62933445 -1.2575419 1.2499422
000290 4d 3e 86 3e 36 5e 27 40 74 33 b7 3e ff 24 11 c0
       0.26219407 2.6151252 0.35781443 -2.267883
0002a0 63 77 58 3f d4 24 b0 3c e0 21 9e be 21 ea 5a 3e
       0.8455717 0.021501936 -0.3088522 0.21378376
0002b0 24 8e 99 be c2 c5 09 3d 8c fc 1c bf da e4 5d 3f
       -0.29991257 0.033635862 -0.61322856 0.86677325
0002c0 a5 ea 63 3f 00 80 fe 3f 38 40 12 3f 9d 05 3c 3d
       0.89029914 1.9882812 0.5712924 0.04590379
0002d0 8c 66 bf bf 24 a1 91 bf ff 35 f7 be 34 de bd bf
       -1.495317 -1.1377301 -0.48283383 -1.4833436
0002e0 7c 3f b2 bf af 29 3b 40 ed 02 ef be 1a 65 03 40
       -1.3925624 2.9244192 -0.4668192 2.0530457
0002f0 16 ce b0 bd dc d7 40 bf 52 66 0e 40 64 5a a2 3c
       -0.08633058 -0.75329375 2.2249951 0.019818492
000300 6f df c7 3e 22 c6 51 3e c6 f7 9f bf 8f 75 3e bf
       0.39037654 0.20485738 -1.249749 -0.7439813
000310 43 7e a5 bc cd 1e 87 bf dd 1a 2a bf 6b c8 5b bf
       -0.020201808 -1.0556275 -0.6644724 -0.8585269
000320 bb b2 ce bf 77 cb b4 bd 25 56 db 3e 75 e3 14 3f
       -1.6148294 -0.0882787 0.4283916 0.5815957
000330 40 64 b6 bf 45 0d 31 40 47 c6 8a bf 91 14 b8 3e
       -1.4249344 2.766435 -1.084176 0.3595319
000340 15 47 05 c0 67 d1 a3 3e 90 15 58 3f b5 6b a4 3c
       -2.0824635 0.319957 0.844079 0.02007089
000350 ea dd aa 3f 7b 94 10 40 9e c1 35 3f 5f b8 86 bf
       1.3348973 2.2590625 0.7099856 -1.0525016
000360 ee 29 48 bf 68 35 d6 3e 88 b6 2c bf 7b b6 35 be
       -0.7818898 0.4183762 -0.6746602 -0.17745392
000370 1f a5 36 3f eb 46 95 3f 6b b4 db 3e a0 6b 05 be
       0.71345705 1.1662267 0.42911085 -0.13029337
000380 79 68 9e bf 39 01 10 bf 60 94 47 bf 7b 05 c5 3e
       -1.2375633 -0.56251866 -0.7796078 0.38480744
000390 e5 04 69 bf df bd 09 bf 65 5e b2 bf 2a b5 5c 3e
       -0.91023093 -0.53805345 -1.3935057 0.21553484
0003a0 6c 23 a2 bf 65 7b 97 3f 73 51 22 bf 2f b4 3c be
       -1.266706 1.1834532 -0.6340553 -0.1842811
0003b0 e1 41 8a 3f ca 76 6f 3f d6 4e c5 bd 13 70 8b 3f
       1.0801355 0.9354063 -0.096341774 1.0893577
0003c0 a3 27 47 be c2 af 0a bd 17 3c 53 c0 2c 29 3f 3f
       -0.19448714 -0.033859022 -3.3005426 0.746722
0003d0 4e c2 b8 bf 9c cf 73 bf ce 72 77 3f 3f c9 ce 3f
       -1.4434297 -0.9523866 0.96659553 1.6155165
0003e0 3f 17 48 bf 9f 89 50 40 fe 6d a0 bf 02 f3 c1 bf
       -0.7816047 3.2583997 -1.2533567 -1.5152285
0003f0 8b e6 da be 59 f2 1d 40 f9 cd 40 bf d6 96 95 3f
       -0.42754015 2.4679167 -0.7531429 1.1686656

bn1.running_var f4 [400]
000000 c7 94 b4 40 cf d6 86 40 dc 8f 26 41 b8 95 21 40
       5.6431613 4.2137218 10.410122 2.524763
000010 71 37 ac 40 2e 75 bd 40 7f cf 31 41 55 5a 08 41
       5.3817677 5.920554 11.113158 8.522054
000020 b4 8a 8a 40 d9 30 3e 41 3a 67 5e 41 db 4f 91 40
       4.3294315 11.886926 13.900202 4.540998
000030 6a 50 37 41 6a 6a d9 40 81 b4 de 40 1f 60 23 41
       11.457132 6.79424 6.959534 10.210967
000040 39 61 1d 3e 87 bd 92 40 53 58 b5 40 cf 4d a7 40
       0.15369119 4.5856357 5.667032 5.228248
000050 b2 19 15 41 29 db b5 40 ed 13 96 40 cf 35 bb 40
       9.318773 5.683003 4.6899323 5.8503184
000060 7e c7 b4 40 24 32 0f 41 cf ef e9 40 01 67 2f 41
       5.649352 8.949741 7.3105235 10.962647
000070 e5 2d 37 41 7d e3 44 41 76 72 f7 40 7d d7 d7 40
       11.448705 12.305539 7.7327223 6.7450547
000080 97 6c bb 40 61 3a b4 40 32 5c ac 40 d6 13 d8 40
       5.8570056 5.6321263 5.3862543 6.7524214
000090 fc be 75 41 da 88 89 40 76 1b c8 40 68 32 71 40
       15.359127 4.2979555 6.253352 3.7687016
0000a0 4e 98 22 41 16 2b e3 40 97 f9 c8 40 36 36 b4 40
       10.162184 7.0990095 6.2804675 5.6316175
0000b0 9b 16 15 41 03 23 ce 40 98 e1 b1 40 6c a6 20 41
       9.318019 6.441774 5.5587883 10.04063
0000c0 2d 78 8f 40 ce c4 b5 40 93 67 f5 40 65 33 93 3f
       4.48342 5.680274 7.6688933 1.1500059
0000d0 df 6a 0d 41 bf 78 ba 40 1a 9d f8 40 0d 4a 91 40
       8.838592 5.8272395 7.7691774 4.5402894
0000e0 cb 0d e1 40 a7 09 da 40 d9 c3 8a 40 0d 37 9f 40
       7.0329337 6.8136783 4.336407 4.97547
0000f0 44 94 09 41 58 16 cc 40 a7 d1 3a 41 00 aa c5 40
       8.598698 6.3777275 11.676185 6.177002
000100 97 6a c6 40 20 67 c8 41 2a 88 09 41 30 b5 b5 40
       6.2005115 25.050354 8.595743 5.6783676
000110 1f 55 85 41 c6 c6 b9 40 37 77 33 40 32 78 16 41
       16.666563 5.8055143 2.8041513 9.404345
000120 25 bc 6c 41 df a5 ef 40 3b 4f 17 41 33 34 79 40
       14.795934 7.488998 9.456843 3.893811
000130 e8 a8 06 41 59 ed 91 40 47 44 97 40 dd 79 9f 40
       8.416237 4.560223 4.7270846 4.983626
000140 44 89 c1 40 67 a4 c3 40 cb 70 8d 40 50 68 f7 40
       6.048006 6.1138186 4.4200187 7.7314835
000150 06 25 31 41 48 c3 89 40 02 5f fd 40 e4 b3 ca 40
       11.071539 4.305088 7.9178476 6.3344593
000160 db 92 02 41 39 7c 22 41 09 44 b1 40 1c 21 05 41
       8.160853 10.155328 5.539555 8.320583
000170 74 13 a7 40 b2 96 c8 40 7b 22 8a 40 ce a0 73 40
       5.2211246 6.2683954 4.316709 3.8066897
000180 e3 c7 17 41 c9 e6 c1 40 8a 95 10 41 69 e8 b0 40
       9.4863 6.059422 9.036509 5.5283704
000190 fe 86 3d 41 1b af 96 40 27 62 cb 40 e1 e3 ca 40
       11.845457 4.708875 6.3557315 6.3403172
0001a0 97 25 24 41 12 5f 85 41 05 50 f4 40 c2 07 00 41
       10.259177 16.671421 7.634768 8.001894
0001b0 fa 72 39 40 c6 af ce 40 55 49 c7 40 f1 15 9d 40
       2.8976426 6.4589567 6.2277017 4.9089284
0001c0 db 9b a2 40 4f f8 9b 40 52 8d a1 40 60 b6 4d 41
       5.0815253 4.874061 5.048501 12.857025
0001d0 17 90 ef 40 b4 62 a3 40 c5 91 0f 41 8e 48 7c 40
       7.486339 5.1057987 8.973088 3.9419284
0001e0 55 94 d7 40 8d 7c 16 41 7a f1 96 40 fb 6e 92 40
       6.736857 9.405408 4.716977 4.5760474
0001f0 24 ab 56 41 80 61 be 40 bd 6f 8b 40 05 c1 22 41
       13.416782 5.949402 4.35739 10.172124
000200 91 65 d9 40 5f e4 c9 40 27 2b 2d 41 ca 90 d3 40
       6.7936482 6.3091273 10.823035 6.6114244
000210 0b f8 ae 40 ae 72 6b 41 a4 01 9d 40 8b 33 6f 40
       5.4677787 14.715498 4.9064503 3.737521
000220 65 09 d0 40 39 d9 be 40 e2 e3 b5 40 0f 9c cb 40
       6.501147 5.9640164 5.6840677 6.3628
000230 bd 5c ae 40 d1 36 f5 40 65 e3 40 40 57 13 8a 3e
       5.4488206 7.6629415 3.013879 0.2696788
000240 c6 0f b4 40 b9 26 cb 40 2d ee be 40 b4 ed e7 40
       5.6269255 6.348477 5.966574 7.2477665
000250 df 06 a2 40 5c d8 34 41 d9 c8 db 40 c2 a0 48 41
       5.0633388 11.302822 6.8682675 12.5392475
000260 e2 c2 af 40 2f 4b 9d 40 7d 00 1a 41 fd 33 ab 40
       5.4925394 4.9154277 9.625119 5.350096
000270 24 5d c3 40 37 21 95 40 0f 3d 23 41 cc 1c 93 40
       6.1051197 4.6603045 10.202407 4.5972652
000280 6c d6 ab 40 f1 89 d0 40 8a 7a 9d 40 50 4b ca 41
       5.3699245 6.5168386 4.9212084 25.286774
000290 44 9d a9 40 28 6a 83 41 8e 58 b0 40 40 e1 76 40
       5.3004475 16.426834 5.51081 3.8574982
0002a0 ea f6 45 40 00 6a 97 40 b7 df 85 41 ec a9 da 40
       3.0931954 4.7316895 16.734236 6.8332424
0002b0 82 d7 8b 40 21 40 83 41 2a 14 aa 40 94 12 3e 41
       4.370057 16.406313 5.3149614 11.879536
0002c0 a8 c7 d6 40 db b0 01 41 61 d0 ba 40 06 48 fc 40
       6.711872 8.105678 5.837937 7.883792
0002d0 53 41 a4 40 6e 02 c0 40 90 5d b8 40 e4 7a a8 40
       5.132974 6.0002966 5.761421 5.2650013
0002e0 e5 c0 db 40 e2 e0 19 41 ce 63 65 41 b0 74 89 41
       6.8672967 9.617403 14.336866 17.181976
0002f0 17 c5 97 40 90 a5 15 41 f8 57 30 41 95 46 ef 40
       4.742809 9.352921 11.021477 7.477366
000300 43 5a ae 40 45 6c 02 41 55 6d e0 40 42 76 17 41
       5.4485183 8.151433 7.013346 9.466372
000310 06 7b 60 41 b1 46 9e 40 6f 18 a9 40 97 33 d0 40
       14.030035 4.9461293 5.2842326 6.5062976
000320 29 7e 4e 41 17 19 4f 41 65 27 09 41 71 05 1b 41
       12.905801 12.943625 8.572118 9.688828
000330 1c f9 97 40 eb 89 52 41 34 63 69 41 2c d5 99 40
       4.749159 13.158671 14.5867195 4.807272
000340 bf 0f 15 41 e9 e0 cd 40 02 4a 8b 40 29 1a dc 40
       9.316344 6.433705 4.352784 6.8781934
000350 97 5f da 40 61 cf b3 40 85 5d c7 40 e7 07 0d 41
       6.8241687 5.619065 6.230166 8.814429
000360 b1 a9 9d 40 87 1f a8 40 b1 de cd 40 98 7f d0 40
       4.9269643 5.2538486 6.433434 6.5155754
000370 f4 7b 0d 41 90 b0 98 40 30 a2 b1 40 24 5e cd 40
       8.842762 4.771553 5.5510483 6.417742
000380 62 a3 97 40 51 1d 12 41 e2 e3 fc 40 47 6c 82 40
       4.738694 9.132157 7.9028177 4.0757174
000390 ef 3f 45 41 0a f4 d5 40 1d 65 24 41 24 7f 9a 40
       12.328109 6.68604 10.274686 4.82802
0003a0 a9 b1 b6 40 8d b8 bc 40 b6 be 90 41 d4 02 b2 40
       5.709187 5.897528 18.09312 5.562845
0003b0 3d 89 05 41 04 86 96 40 1a 47 99 40 b4 f4 aa 40
       8.346005 4.7038593 4.7899294 5.342371
0003c0 e5 17 2a 41 25 1a d6 40 28 a3 24 41 c1 12 05 42
       10.630834 6.6906915 10.289833 33.268314
0003d0 1f 85 a8 40 05 38 23 41 59 23 8b 40 15 fd 94 40
       5.26625 10.201177 4.348065 4.655894
0003e0 74 38 1b 41 0e 6d d5 40 1a 82 d8 40 e5 85 fc 40
       9.7012825 6.6695623 6.7658815 7.8913445
0003f0 f1 fe cc 40 1e 93 8a 41 df 31 c8 40 e6 5c 1d 41
       6.406121 17.321835 6.256088 9.83518

fc2.weight f4 [300, 404]
000000 98 5d 84 be 8e c4 8a 3e a0 83 84 bf 33 1c 1d be
       -0.25852656 0.27103084 -1.0352669 -0.15342788
000010 04 7b 47 bf a1 ec b2 be f1 3f 08 bf 0c fa 95 3e
       -0.7792208 -0.3494616 -0.53222567 0.29292333
000020 ca 06 17 bf 47 9a 30 3d 2b d5 c7 be 36 4d d8 3d
       -0.58994734 0.04311588 -0.39029822 0.10561602
000030 62 d4 c1 bc 08 28 9e 3e 14 0f fa bc 44 ea 9e 3d
       -0.023660842 0.30889916 -0.030524768 0.07759526
000040 6c 63 13 bd 06 22 e8 be b6 77 05 bf 7a 72 94 be
       -0.035983488 -0.45338458 -0.5213579 -0.2899359
000050 58 31 b0 bd 57 c4 c6 3e 49 17 11 3e bd 7c 0d bd
       -0.086031616 0.3882167 0.14169039 -0.034542788
000060 37 ce 3e bf 3f cd fd 3e 21 72 41 3f 3f 50 91 be
       -0.7453341 0.49570653 0.7556477 -0.28381535
000070 57 c8 3e be 9f 60 29 be 74 16 bd 3d 0b 04 96 be
       -0.18631111 -0.16540764 0.09232798 -0.2929996
000080 3a 41 e4 3d 63 9d e9 be 54 1f 23 bf 9c 11 8f 3e
       0.111452535 -0.4562789 -0.6371968 0.27943122
000090 65 ec 97 3e b7 5c aa 3f 60 f5 80 be 8c 62 a2 be
       0.29672542 1.3309544 -0.25187206 -0.3171581
0000a0 2a 0e 1a bc 69 72 11 be e0 99 8a bd a2 d4 76 3d
       -0.009402791 -0.142038 -0.067676306 0.060261376
0000b0 3c 05 75 3e ec 9c 4f 3f be e7 31 3f 93 a7 04 3e
       0.23927778 0.8109882 0.69494236 0.1295455
0000c0 14 ec 00 3f 18 7e f0 bd 84 d0 dc 3e 06 ad 7c 3d
       0.50360227 -0.117428005 0.43127835 0.061688446
0000d0 91 d0 6a 3d 09 dd 9e 3e 73 14 c0 be ae ec 01 3f
       0.05732781 0.3102801 -0.37515602 0.5075177
0000e0 ad d7 f5 3c 63 37 67 3e 2b f3 68 be 71 de c2 3d
       0.030010069 0.22579722 -0.22749011 0.095150836
0000f0 df 3e 49 bf cf fd 84 3e ee 23 0f 3e 4b 6a 11 3d
       -0.7861156 0.2597489 0.1397855 0.03550176
000100 93 a3 59 bf e1 bd dc 3d 50 2b f9 bf 28 c7 6e be
       -0.8501522 0.10778404 -1.9466343 -0.2331816
000110 49 99 1f 3f 32 e4 a3 be cf 4f 94 bf f9 4b 57 be
       0.6234327 -0.32010037 -1.1586856 -0.21025075
000120 bc f3 55 3d 5e 96 39 bf 20 09 1b bf ef 6b 03 bf
       0.052234396 -0.7249507 -0.605608 -0.5133657
000130 87 0a 16 3e 81 5d 97 bd 0a ec 99 3e 27 db 18 be
       0.14652453 -0.07390881 0.30062896 -0.1492735
000140 4d e1 40 bf c1 d9 c0 3d 88 cd 6e 3e 2b 25 6a 3d
       -0.7534378 0.09416533 0.23320591 0.057164352
000150 a9 2e 33 bd 9a 86 a4 be 80 14 62 be 65 65 04 3f
       -0.04374567 -0.32133943 -0.22078133 0.51717216
000160 dd 86 fc 3d 90 1b fa 3e 22 2d 3a 3f b4 71 a3 be
       0.12330411 0.48849154 0.7272512 -0.31922686
000170 39 96 c0 3e cb f6 04 3f 64 c6 04 3f a6 0a 82 3f
       0.3761461 0.51939076 0.5186522 1.01595
000180 49 19 91 bf da c2 95 3e 83 c7 f7 3e 74 0c 4f 3e
       -1.1335841 0.29250222 0.48394403 0.20219594
000190 04 8d 06 bd 30 7b 0b bf 33 d2 18 3f fc aa fc bd
       -0.032849327 -0.54484844 0.5969574 -0.123373
0001a0 d5 46 51 3d 73 b0 62 3f 82 79 23 3e 11 61 b1 3e
       0.05109294 0.8855049 0.1596432 0.34644368
0001b0 75 58 4d bd 23 83 de bf 35 30 72 3e 45 68 7f 3d
       -0.050133187 -1.738377 0.23651202 0.0623553
0001c0 76 36 9d 3c cf 8b 81 3d 23 96 59 be e0 44 63 bd
       0.019191008 0.063254945 -0.21248679 -0.055485606
0001d0 4a 53 60 3e cf 28 18 3f 15 83 54 3e c2 cf 86 bd
       0.21906772 0.5943727 0.20753129 -0.065825954
0001e0 29 cc 31 be 79 b8 73 bf 35 ec d7 bd f8 b7 42 3e
       -0.17363037 -0.9520336 -0.105431 0.19015491
0001f0 95 b2 cb 3d 63 37 ab 3e b8 05 b9 3d 82 fa 4e bf
       0.09946171 0.33440694 0.09034294 -0.80850995
000200 07 97 a3 3e d1 42 7b be 38 e9 22 bf 6e 98 4c 3d
       0.31951162 -0.24537207 -0.63637114 0.049950056
000210 e8 04 e1 bd 49 51 3b bf 33 c3 80 3e 54 ad 02 3f
       -0.10987264 -0.73170906 0.25148925 0.5104573
000220 27 d1 f9 3d a0 60 02 3f 08 84 d7 3e 77 01 73 be
       0.12198096 0.5092869 0.4209292 -0.23731028
000230 8f c5 ac 3e 77 ff 40 3e 76 da d6 3c 9d 8a 8e 3c
       0.33744475 0.18847452 0.026227217 0.01740008
000240 79 d0 ea 3d 88 68 06 3e 37 3d 5d bf ca 03 58 3f
       0.11465544 0.13125813 -0.8642153 0.8438078
000250 55 9e da 3e 84 56 cc be 9f 0a 79 3f 00 2b 83 be
       0.42698923 -0.39909756 0.9728183 -0.25618744
000260 ae 04 0b bf fd 1b 0d 3f f9 f1 32 bf 43 fa 30 bf
       -0.54304016 0.5512083 -0.6990047 -0.6913187
000270 66 a8 9d be 6f 64 2a 3f 13 df 2c bf aa 3e 73 3f
       -0.3079254 0.665595 -0.67527884 0.9501749
000280 39 5a 22 bf a0 e2 b1 bf bc 94 31 3f 0b 52 40 3e
       -0.6341892 -1.3897285 0.69367576 0.18781297
000290 88 df e8 3e 51 5a b4 3d 95 0a a1 3d 92 54 39 bf
       0.4548304 0.08806289 0.078633465 -0.7239467
0002a0 57 1b 30 bf 99 aa 82 bd b2 6f 52 3e e0 fb 26 bf
       -0.6879172 -0.06380195 0.20550421 -0.6522808
0002b0 b1 9b 83 bf ea d4 96 bf 38 00 4c bd 71 2a 30 3e
       -1.0281888 -1.1783726 -0.049804896 0.1720369
0002c0 e4 c2 bc be 4a 16 8b be 18 67 3e bf df bd f9 bc
       -0.3686744 -0.27165443 -0.7437606 -0.030486045
0002d0 85 dc 9e bd 27 fb 90 bf 39 a3 cc 3e cd 07 18 bf
       -0.077569045 -1.1326646 0.3996828 -0.59386903
0002e0 a3 01 d0 be c4 f3 bf 3e bb c9 c3 be 63 30 36 3f
       -0.4062625 0.37490666 -0.38239846 0.7116758
0002f0 1d a0 86 bf 76 78 f7 bd ee 41 ef bd 68 49 19 be
       -1.0517613 -0.12083523 -0.11682497 -0.14969409
000300 5a f2 c7 bd c5 85 9b bf 00 00 f2 bd 06 e0 c0 be
       -0.09763022 -1.2150198 -0.11816406 -0.37670916
000310 e0 da 1e be 39 34 26 bf 02 0e ee be 23 27 ec 3d
       -0.15513182 -0.64923435 -0.46495062 0.11530902
000320 ac 03 04 be 6f d7 e3 3d ca ff 46 be 17 f5 bf 3d
       -0.12892026 0.11125075 -0.19433513 0.09372919
000330 3d e6 60 be 90 4e 16 3e 7e f8 c7 bf 8d c9 00 be
       -0.21962829 0.14678407 -1.5622709 -0.12576886
000340 31 16 1c 3e 2a 61 15 be 01 13 c5 3e b4 13 bf bc
       0.1524284 -0.14587846 0.3849106 -0.023324825
000350 5e c2 aa 3e ea ed d5 bf b4 27 f5 3e 4f 8a 67 3f
       0.33351415 -1.6713231 0.47881854 0.9044542
000360 0b be 9a 3e 13 2b 1a be 32 27 c4 be 3e da b2 be
       0.30223116 -0.15055494 -0.38311154 -0.3493213
000370 19 cf 8c bd 76 9d b9 bd ae 08 1b be 5e 85 bd 3e
       -0.06875438 -0.090632364 -0.1514003 0.37015814
000380 4b 6f cf 3e e0 59 c7 3d 8c 9e e1 be 02 94 4e 3c
       0.40514597 0.09733939 -0.44066274 0.01260853
000390 44 b5 89 3e a9 71 e4 bd 7e 85 88 3e eb 15 36 3d
       0.26896107 -0.111544915 0.26664346 0.044454496
0003a0 b1 f2 5a bd 85 18 04 be 1c 4d 25 3e ad 0b 41 bd
       -0.053454105 -0.12899978 0.16142696 -0.047130276
0003b0 dd 78 fa 3e 87 21 09 bf 6f 33 34 3f 0c 32 73 3d
       0.48920336 -0.53566784 0.7039098 0.0593739
0003c0 40 e2 99 3e a8 08 66 be 1b e2 03 be 61 65 7c bd
       0.30055428 -0.2246424 -0.12879221 -0.06162012
0003d0 a6 82 2f bf 7d c4 8d bf 9c c3 31 bf 01 ea 8d be
       -0.6855873 -1.1075588 -0.694391 -0.27717593
0003e0 f9 09 39 3f a2 03 3a 3d 99 8a 06 bf 3a a0 ac 3d
       0.7228084 0.04541362 -0.52555233 0.08428998
0003f0 8c 46 d1 3e 77 b4 68 bf a3 08 97 3d 83 af 24 be
       0.40874135 -0.9090037 0.07374694 -0.16082577
