checkpoint_actor.pth (torch_old, 548262 bytes, 10 tensors)

fc1.weight f4 [400, 33]
0	0xbebd1127	-0.3692715
1	0x3e973e3a	0.29539663
2	0x3e3f3400	0.1867218
3	0xbfb528f4	-1.4153123
4	0xbf90ddaa	-1.1317647
5	0xbeccfc9e	-0.40036482
6	0x3f8c86bf	1.0978621
7	0xbe408a6c	-0.18802804
8	0x3f2347e8	0.63781595
9	0xbf3d68ba	-0.73987925
10	0x3e68bd9a	0.22728577
11	0x3da9d53f	0.082926266
12	0x3d3a94a7	0.045551922
13	0xbbd8ff82	-0.006622256
14	0xbe8fce7e	-0.2808723
15	0xbeb9858a	-0.36234695
16	0x3f6e2737	0.9302859
17	0x3f329dea	0.6977221
18	0xbf7c406b	-0.98535794
19	0x3fd8c927	1.6936387
20	0xbb7e91b6	-0.0038844175
21	0x3db38d91	0.08767236
22	0xbe836093	-0.25659618
23	0x3d8c892e	0.068621024
24	0xbdd8469b	-0.10560342
25	0x3d933640	0.07188082
26	0x3f05d422	0.52276814
27	0xbc8fff42	-0.017577771
28	0x3dc0cd2b	0.09414133
29	0x3c42acd8	0.0118820295
30	0x3d1f4c2a	0.038890995
31	0x3d01129b	0.031511884
32	0xbf82b782	-1.0212252
33	0x3f2eac3d	0.68231565
34	0x3ed1f6f5	0.41008726
35	0x3f37de99	0.7182403
36	0xbdd6d15d	-0.104891516
37	0x3fab7644	1.3395467
38	0xbe47914d	-0.19489022
39	0x3f8ba4c2	1.0909655
40	0xbe60765f	-0.21920155
41	0xbf0a9448	-0.5413251
42	0x3e690140	0.22754383
43	0x3e4c1295	0.19928963
44	0xbe86b2e8	-0.2630837
45	0xbebb2e7c	-0.36558902
46	0x3dc0612a	0.093935326
47	0x3da2587f	0.079270355
48	0x3e891d4f	0.26780173
49	0xbeee1503	-0.46500406
50	0xbcd18c95	-0.02557973
51	0xbf9e1a27	-1.2351731
52	0xbe920b1b	-0.28524098
53	0xbedd9cbe	-0.43283647
54	0x3f3a9397	0.72881454
55	0x3e3df581	0.18550684
56	0x3e9776bd	0.29582778
57	0x3e628496	0.2212089
58	0x3d8c02d8	0.0683648
59	0x3df0dc50	0.11760771
60	0x3d45ed73	0.048322152
61	0x3ece352b	0.4027494
62	0x3d23b911	0.039971415
63	0x3d3d593b	0.046227675
64	0xbc6ab3ec	-0.014325123
65	0xbfaf192d	-1.3679558
66	0xbf392f28	-0.7233758
67	0x3eb0be3d	0.3452014
68	0x3e3043f7	0.17213427
69	0xbf6d32db	-0.92655724
70	0x3f45b6b5	0.77231914
71	0x3fa67b82	1.3006442
72	0x3fb09a63	1.3797115
73	0xbefd81cb	-0.49513087
74	0xbdc9e91f	-0.098589174
75	0xbe82e6d5	-0.25566736
76	0xbd886106	-0.06659131
77	0xbdbfe741	-0.0937028
78	0xbea8e2df	-0.3298559
79	0xbf27785f	-0.65418047
80	0xbd691b40	-0.056910753
81	0x3e69354f	0.22774242
82	0x3f9179ed	1.1365334
83	0xbf62fa13	-0.8866283
84	0xbe462609	-0.19350447
85	0xbe909a3e	-0.28242677
86	0xbd61024d	-0.054933835
87	0xbdc804d8	-0.09766549
88	0xbd9f568a	-0.07780178
89	0xbca350d2	-0.019935999
90	0xbd34d7c7	-0.044151094
91	0xbe8436bb	-0.25823006
92	0x3ee44763	0.44585714
93	0x3d189dbb	0.0372598
94	0xbb9806ae	-0.004639468
95	0xbcd327bd	-0.025775785
96	0x3d2570e5	0.040390868
97	0x3bb6da70	0.005580239
98	0x3f51b88b	0.81922215
99	0x3e2e5665	0.17025144
100	0x3f601b4f	0.8754167
101	0x3de16da0	0.110072374
102	0xbf41ff75	-0.7578042
103	0x3f861cdd	1.0477558
104	0xbf9280d0	-1.144556
105	0x3f692a5a	0.9108025
106	0xbdf31810	-0.11869824
107	0x3fa8e45d	1.3194691
108	0xbe7a61d5	-0.24451382
109	0x3efbf8e1	0.49213317
110	0x3e2f39f8	0.17111957
111	0x3e669c39	0.22520532
112	0x3f003d75	0.50093776
113	0xbef2d7a1	-0.47430137
114	0xbdbcde1d	-0.09222052
115	0x3f8778cb	1.0583738
116	0x3f39db96	0.72600687
117	0x3f3933a1	0.72344404
118	0x3e035432	0.12825087
119	0x3dc01fa7	0.09381037
120	0x3e259b9f	0.16172646
121	0xbe9c6b73	-0.30550727
122	0x3e48c226	0.19605312
123	0xbef372ea	-0.4754861
124	0x3e480c39	0.19535913
125	0xbd517074	-0.051132634
126	0x3c7db3d0	0.015484765
127	0x3ded239f	0.1157906
128	0xbc656054	-0.014000017
129	0x3c977a10	0.018490821
130	0x3cf67182	0.030083422
131	0x3f805f60	1.0029106
132	0x3e518573	0.20461063
133	0xbdb173dc	-0.086646765
134	0xbf0a4c3d	-0.5402258
135	0x3d97f400	0.07419586
136	0xbfe7d18d	-1.8110825
137	0x3fea1e4a	1.8290493
138	0xbe42496b	-0.18973319
139	0x3f213471	0.62970644
140	0xbef47d2a	-0.47751743
141	0x3f3a3e5d	0.7275141
142	0x3dc6b8ed	0.097032405
143	0x3b62bb80	0.0034596622
144	0xbcfb6296	-0.030686658
145	0xbe61ee60	-0.22063589
146	0xbe91546a	-0.28384715
147	0xbf1018c5	-0.56287795
148	0xbef969b3	-0.48713455
149	0xbe9ca524	-0.30594742
150	0x3f43ef65	0.7653716
151	0xbf4825ec	-0.78182864
152	0x3bab5263	0.005228327
153	0xbc39cc90	-0.011340275
154	0xbec1292d	-0.37726727
155	0x3ea4efa8	0.32214093
156	0xbd8ccbab	-0.06874784
157	0xbec71394	-0.38882124
158	0xbe2377ca	-0.15963665
159	0x3d213ca1	0.03936446
160	0x3eb34e48	0.3502066
161	0xbcaad52a	-0.020853598
162	0xbd15be35	-0.03655835
163	0xbc268348	-0.010163136
164	0xbf15254b	-0.5826003
165	0xbe83a639	-0.25712755
166	0xbe19b12c	-0.15008992
167	0xbeb4cafd	-0.35311118
168	0x3ebb8dfe	0.3663177
169	0xbeb9c718	-0.3628471
170	0x3f938b02	1.1526797
171	0xbf3e2b8d	-0.74285203
172	0x3e2a1d17	0.1661266
173	0x3f9866e1	1.1906396
174	0x3f53dd28	0.8275933
175	0x3e5232bb	0.20527165
176	0x3e1e8a8e	0.15482542
177	0x3cd2d711	0.025737317
178	0x3e193e27	0.14965115
179	0x3f183ca6	0.5946754
180	0x3e4a5b0c	0.19761294
181	0xbf5db787	-0.86608166
182	0xbfb16b1b	-1.3860811
183	0x3d9eff0a	0.077634886
184	0x3e67b23f	0.22626589
185	0xbe926dbb	-0.28599343
186	0x3e841eab	0.25804648
187	0xbe90f253	-0.2830988
188	0xbdcbbea2	-0.0994847
189	0x3e07d075	0.13263114
190	0x3e4ad248	0.19806778
191	0x3e931a98	0.28731227
192	0xbd2e2750	-0.04251796
193	0xbe1e4336	-0.15455326
194	0xbd40f405	-0.047107715
195	0xbd097435	-0.03355809
196	0x3c4f0804	0.012636188
197	0xc017a470	-2.3694115
198	0x3effeefe	0.49987024
199	0x3f75a3b6	0.9595293
200	0x3ecbe676	0.39824265
201	0xbe2dadaf	-0.16960786
202	0x3f46a437	0.7759432
203	0x400ecd0a	2.2312646
204	0xbf27c219	-0.65530545
205	0xbec8dda4	-0.39231598
206	0x3e922a1a	0.28547746
207	0x3f320c27	0.69549793
208	0x3e8c8bfe	0.27450556
209	0x3e9b86c2	0.3037625
210	0xbe34c4ef	-0.17653249
211	0xbec7762f	-0.38957354
212	0xbd600b46	-0.05469825
213	0xbeba2f81	-0.36364368
214	0xbe65da8e	-0.22446653
215	0x3e7d1261	0.24714042
216	0x3f1f3839	0.62195164
217	0x3f5840d1	0.844739
218	0xbda5e642	-0.08100559
219	0xbec54d80	-0.3853569
220	0x3e88c241	0.26710704
221	0x3e4913e4	0.19636494
222	0xbda05042	-0.07827808
223	0xbe5b85c8	-0.21437752
224	0xbdc200b7	-0.094727926
225	0x3c9141db	0.017731598
226	0xbd7e67dc	-0.062110767
227	0x3cd8dea6	0.026473355
228	0x3d1d4b0e	0.038401656
229	0x3d0e4079	0.034729455
230	0x3f9bac5d	1.2161976
231	0x3f672cc5	0.9030269
232	0x3f19e334	0.6011231
233	0xbed7f818	-0.42181468
234	0x3e745554	0.23860675
235	0x3ec0f38f	0.3768582
236	0xbf9239c9	-1.1423885
237	0xbf383d6d	-0.7196873
238	0x3c1dfb9c	0.009642508
239	0x3eaf4848	0.34234834
240	0xbdfca785	-0.12336639
241	0xbc9315ac	-0.01795467
242	0x3e89628d	0.26833
243	0x3d76ee7f	0.06028604
244	0xbb6d08c2	-0.003616855
245	0xbeeecbf2	-0.46639973
246	0x3eb6ff0b	0.35741457
247	0xbfa88f00	-1.316864
248	0x3f73aeee	0.95188797
249	0x3ead213a	0.33814412
250	0xbeef3ba3	-0.46725187
251	0x3d8b3fff	0.06799316
252	0x3dee5c0e	0.11638652
253	0x3de9a23d	0.114078976
254	0xbdb0ed2e	-0.086389884
255	0xbeb4bdc0	-0.35301018

fc1.bias f4 [400]
0	0x3e0af65e	0.13570544
1	0xbe0ed8b9	-0.1394986
2	0x3dad3cee	0.08458887
3	0xbdbfb1d8	-0.09360093
4	0x3b1cad94	0.0023907172
5	0xbccbe3d6	-0.024888914
6	0xbca17943	-0.019711142
7	0xbdb009f1	-0.08595646
8	0xbe03adc2	-0.12859252
9	0xbe2d186e	-0.1690385
10	0xbe10eee9	-0.14153637
11	0x3dbbddcf	0.09173166
12	0xbdf8b3d0	-0.121436715
13	0xbd686f58	-0.05674681
14	0x3e141038	0.14459312
15	0x3d4c9de5	0.049955267
16	0x3e1fa349	0.15589632
17	0x3e2a1181	0.1660824
18	0x3db371d1	0.08761943
19	0x3dd5eef2	0.10445966
20	0xbe0bec33	-0.13664322
21	0xbd9c86ba	-0.076428846
22	0xbe1bfcd0	-0.15233159
23	0xbd323b64	-0.04351367
24	0x3dda02a8	0.10645038
25	0xbca9693d	-0.020680064
26	0x3b4446d9	0.0029949455
27	0xbe195a4d	-0.14975853
28	0x3d26ea6d	0.04075091
29	0x3df509dc	0.11964771
30	0x3d3062be	0.043062918
31	0xbda07bc6	-0.07836108
32	0x3d95554e	0.07291661
33	0xbbbfdd54	-0.005855242
34	0x3dcef58e	0.101054296
35	0x3df8ba8f	0.12144958
36	0xbdbf1929	-0.09330971
37	0x3cdc64fd	0.026903624
38	0xbd65dfaa	-0.056121506
39	0xbd3b1820	-0.045677304
40	0xbe2ce4da	-0.16884175
41	0x3e24d8e5	0.16098364
42	0x3d817add	0.063222624
43	0xbc6d6f2c	-0.0144918375
44	0xbe0907c9	-0.13381876
45	0xbdb050a0	-0.08609128
46	0x3d8e52c9	0.06949384
47	0x3d95cd5b	0.07314559
48	0x3deaf41c	0.114723414
49	0xbdb160d5	-0.08661047
50	0x3e066f41	0.13128377
51	0xbda3c376	-0.079962656
52	0x3daa5da8	0.08318645
53	0x3caa4c3b	0.020788303
54	0x3c254c4e	0.010088993
55	0x3c5fb2a0	0.013653427
56	0xbe22b73f	-0.15890215
57	0x3cce7dcd	0.02520647
58	0x3e1249c8	0.14285958
59	0xbd23d840	-0.040001154
60	0x3ddfc23a	0.10925718
61	0x3d0a6adc	0.033793315
62	0x3db33c5d	0.08751748
63	0xbdb8cb6e	-0.09023176
64	0x3d9f1361	0.07767368
65	0x3e0c5951	0.13705947
66	0xbdbc20e0	-0.09185958
67	0x3e173036	0.14764485
68	0xbd65b8ed	-0.056084562
69	0xbcc7477d	-0.02432608
70	0xbe24955c	-0.16072601
71	0x3dcf86fd	0.10133169
72	0x3d2edd48	0.0426915
73	0x3e15cdab	0.14629237
74	0xbdc09521	-0.09403444
75	0x3ce84b7e	0.02835631
76	0xbc7971da	-0.015224898
77	0x3e18c666	0.14919433
78	0x3d3b7d44	0.04577376
79	0xbe06bfc6	-0.13159093
80	0x3dccd498	0.100014865
81	0x3e0730be	0.13202187
82	0x3d307ae4	0.043085948
83	0x3d6dea14	0.058084562
84	0x3dbfdbde	0.09368108
85	0x3d5c20e1	0.053742293
86	0x3dab442b	0.083626114
87	0x3e2cd19a	0.16876832
88	0xbd76fdc1	-0.060300592
89	0xbe0a1350	-0.1348393
90	0x3b95bb10	0.0045694187
91	0xbd798689	-0.06091932
92	0x3a721138	0.0009234133
93	0x3da6925b	0.08133384
94	0xbd42dd05	-0.047574062
95	0xbc4f499d	-0.012651828
96	0x3da28c28	0.07936889
97	0xbe03be7c	-0.12865633
98	0xbda1da3e	-0.079029545
99	0x3cc83b36	0.024442296
100	0x3de09fc3	0.10967972
101	0x3b8aff03	0.0042418255
102	0x3cc7ca3a	0.024388421
103	0x3e10bc8d	0.14134426
104	0x3e2d9460	0.16951132
105	0xbbf1dfec	-0.00738143
106	0xbd319e69	-0.043363962
107	0xbd1b79f9	-0.03795812
108	0xbd98106d	-0.07425008
109	0x3df083c7	0.117438845
110	0xbd6bfe09	-0.057615314
111	0x3db453ec	0.08805069
112	0xbdf19a11	-0.11796964
113	0xbdc8ec4b	-0.09810694
114	0x3df163b8	0.11786598
115	0xbd92f68b	-0.071759306
116	0xbd8bb9d9	-0.06822557
117	0xbd5593fa	-0.052143075
118	0xbd10cca3	-0.035351407
119	0xbd24f38c	-0.040271327
120	0x3c67b4d4	0.014142234
121	0xbd17fb7e	-0.037105076
122	0x3d539d48	0.051663667
123	0x3e00174a	0.12508884
124	0xbe093024	-0.1339727
125	0x3e1a9736	0.15096745
126	0x3dcd1d99	0.10015411
127	0x3d5c831a	0.053835966
128	0xbaae47cc	-0.0013296544
129	0x3e0b46c5	0.13601215
130	0x3df1b8a3	0.11802795
131	0xbdd23634	-0.10264245
132	0x3d0b8710	0.034064353
133	0xbdf42cec	-0.11922631
134	0x3df59de5	0.119930066
135	0x3db9ff19	0.09081859
136	0x3c9b0ade	0.01892608
137	0x3e0e14d3	0.13875131
138	0x3d092f8f	0.03349262
139	0xbd743c80	-0.05962801
140	0xbd04c269	-0.032411966
141	0xbe0c1042	-0.13678077
142	0x3d996245	0.074894466
143	0x3c0ad24b	0.008472989
144	0x3d4272eb	0.047472876
145	0xbdc407cb	-0.09571799
146	0x3ce6e334	0.02818451
147	0xb9d5d6b8	-0.00040786504
148	0x3e1e9bfe	0.15489194
149	0x3dc8b73f	0.098005764
150	0x3e1a37fe	0.15060422
151	0xbe2cf2f7	-0.16889559
152	0xbd64b852	-0.055839844
153	0xbc03410d	-0.008011115
154	0x3e266b91	0.16251971
155	0x3cdc6cbc	0.026907317
156	0xbd89c605	-0.06727222
157	0x3de02adc	0.10945675
158	0xbe183440	-0.14863682
159	0x3d86c2b3	0.06580105
160	0xbe23990e	-0.15976354
161	0x3e05c527	0.13063489
162	0x3e2d6910	0.1693461
163	0x3c05701e	0.008144407
164	0x3dbc7e21	0.09203745
165	0x3e19a320	0.15003633
166	0xbe19cd3e	-0.150197
167	0xbd92005c	-0.07128975
168	0xbd241fe6	-0.040069483
169	0xbd87fec7	-0.06640392
170	0x3e2c50be	0.16827676
171	0x3dd97495	0.106179394
172	0x3dc05a53	0.09392228
173	0x3e10bf31	0.14135434
174	0xbd44da37	-0.04805967
175	0xbb567693	-0.0032724484
176	0x3dbbda7f	0.09172534
177	0x3d641b6b	0.05569021
178	0xbd647a8c	-0.055780932
179	0x3bb869f8	0.005627867
180	0x3e20d9e3	0.15708117
181	0xbe28d419	-0.16487159
182	0x3e2fc374	0.17164403
183	0xbe0f8edd	-0.14019342
184	0x3c824570	0.015902251
185	0x3cf9b7ad	0.030483091
186	0xbe276a34	-0.16349107
187	0xbd994b00	-0.07485008
188	0x3dbe5554	0.09293619
189	0xbe2eb526	-0.1706129
190	0xbd8be1e3	-0.06830194
191	0xbda2d828	-0.07951385
192	0x3c09fe8f	0.008422508
193	0xbe051f8d	-0.13000317
194	0x3de04465	0.10950545
195	0xbe04ead1	-0.129802
196	0xbd98dd30	-0.07464063
197	0x3dfc1687	0.12308984
198	0x3e28a74f	0.16470073
199	0x3cc1e1e5	0.023667285
200	0xbda78296	-0.08179204
201	0x3c60602f	0.013694807
202	0xbd91aaf6	-0.07112686
203	0x3e163ecd	0.14672394
204	0xbd807599	-0.0627243
205	0x3ca2eb21	0.019887509
206	0x3c78ffea	0.015197733
207	0xbe2dc0f5	-0.16968139
208	0xbd5a96b1	-0.053366367
209	0x3db57041	0.08859301
210	0x3c97ab1d	0.01851421
211	0x3ce6a211	0.028153451
212	0xbdb4b9aa	-0.08824475
213	0x3e1d09bd	0.15335746
214	0xbe0a649d	-0.13514943
215	0xbe03214d	-0.12805672
216	0xbd077370	-0.033069074
217	0x3dbd2143	0.0923486
218	0xbddb547e	-0.10709475
219	0xbd54d891	-0.051964346
220	0x3d0ecc1c	0.034862623
221	0x3d713d2b	0.058896225
222	0xbd618d1b	-0.05506621
223	0x3dc5d5dc	0.09659931
224	0x3dcdc676	0.10047619
225	0x3d07c097	0.033142652
226	0x3ce3be3d	0.027800674
227	0x3e21333f	0.15742205
228	0x3d85223a	0.06500669
229	0xbe0b58b6	-0.1360806
230	0xbd021b64	-0.031764403
231	0x3d88dac6	0.06682353
232	0xbd85af45	-0.06527571
233	0x3df1ba53	0.11803117
234	0xbd44d595	-0.04805525
235	0x3d4af3ba	0.049548842
236	0x3c5fdb45	0.013663118
237	0x3be000d7	0.0068360376
238	0xbc5cfdf8	-0.013488285
239	0xbbc8fc9d	-0.0061336295
240	0xbd00389e	-0.031303994
241	0xbc6ded72	-0.014521943
242	0xbd6dddb1	-0.05807275
243	0x3de1d26c	0.11026463
244	0x3db2da2f	0.087330215
245	0x3e07cc54	0.13261539
246	0x3df972b3	0.1218008
247	0x3dcd3cdf	0.10021376
248	0xbe1d78c9	-0.15378107
249	0x3e0c5a99	0.13706435
250	0x3e230bab	0.1592242
251	0xbcd05a25	-0.02543361
252	0xbd25e8ad	-0.0405051
253	0xbd4f406d	-0.05059855
254	0xbdc2784f	-0.09495603
255	0x3d1b36cd	0.03789406

bn1.weight f4 [400]
0	0x3f793555	0.97347003
1	0x3f46a95b	0.77602166
2	0x3f573d5a	0.8407799
3	0x3f6c2eec	0.922591
4	0x3f73dca7	0.95258564
5	0x3f24784f	0.64246076
6	0x3f5bb0f5	0.8581689
7	0x3f89ec38	1.0775213
8	0x3f50451b	0.81355447
9	0x3f82075a	1.0158494
10	0x3f7e6494	0.9937222
11	0x3f49ae32	0.78781426
12	0x3f4b4360	0.7939968
13	0x3f353199	0.70778805
14	0x3f4084ed	0.7520283
15	0x3f82240b	1.016725
16	0x3f47e847	0.780888
17	0x3f6d6d1f	0.9274463
18	0x3f3d4057	0.739263
19	0x3f3d8b4d	0.7404068
20	0x3f6a9737	0.91636986
21	0x3f4fb3b4	0.8113358
22	0x3f306461	0.68903166
23	0x3ebeef71	0.37292054
24	0x3f708a5b	0.93961114
25	0x3f5c7e18	0.86129904
26	0x3f5a32bd	0.8523367
27	0x3f8165d5	1.0109202
28	0x3f827112	1.0190756
29	0x3f32edb6	0.6989397
30	0x3f4e9503	0.80696124
31	0x3f245e05	0.6420596
32	0x3f2a920c	0.666291
33	0x3f443e7b	0.7665784
34	0x3f15d72b	0.58531445
35	0x3f57c924	0.8429129
36	0x3f67f376	0.90605867
37	0x3f26e70d	0.65196306
38	0x3f7a61bf	0.978054
39	0x3f36cc14	0.7140515
40	0x3f304e56	0.6886953
41	0x3f331b17	0.6996321
42	0x3f554d80	0.8332138
43	0x3f2faa56	0.68619287
44	0x3f4d8ca2	0.80292714
45	0x3f0f62b0	0.5600996
46	0x3f410b1c	0.75407577
47	0x3f3c9938	0.73671293
48	0x3f2bb1ae	0.6706799
49	0x3f4b2010	0.793458
50	0x3f5a9bd0	0.85394
51	0xba3d3046	-0.0007216971
52	0x3f69e17f	0.91359705
53	0x3f2d68d8	0.67738104
54	0x3f0ab533	0.5418274
55	0x3f55e485	0.8355182
56	0x3f1dcd52	0.6164142
57	0x3f60a152	0.87746155
58	0x3f3297b2	0.6976272
59	0x3f5bc610	0.85849094
60	0x3ef8b8bf	0.4857845
61	0x3f736b70	0.9508581
62	0x3f24550b	0.64192265
63	0x3f2a9b09	0.66642815
64	0x3f4ab35c	0.7917993
65	0x3f66fed8	0.9023261
66	0x3f403b48	0.75090456
67	0x3f4b03a8	0.79302454
68	0x3f491931	0.78554064
69	0x3f793eeb	0.9736163
70	0x3f429b41	0.7601815
71	0x3facfb48	1.3514185
72	0x3f4e9a71	0.8070441
73	0x3f364b6f	0.7120885
74	0x3f54bb48	0.8309827
75	0x3f86e604	1.0538945
76	0x3f0ffbf8	0.5624385
77	0x3f554397	0.8330626
78	0xbc2c3143	-0.010509792
79	0x3f44ddb1	0.76900774
80	0x3f693f86	0.91112554
81	0x3f53f699	0.82798153
82	0x3f60e112	0.8784343
83	0x3f3537bc	0.7078817
84	0x3f41e213	0.75735587
85	0x3f859214	1.0435205
86	0x3f24decb	0.64402455
87	0x3eeba849	0.4602683
88	0x3f60588a	0.876351
89	0x3f721d53	0.94575995
90	0x3f3bf626	0.7342247
91	0x3f50c02e	0.8154324
92	0x3f282184	0.6567614
93	0x3f0bdc41	0.54632956
94	0x3f58f39d	0.84746724
95	0x3f3ae622	0.73007405
96	0x3f29efcd	0.6638153
97	0x3f40139e	0.75029933
98	0x3f49ae7a	0.78781855
99	0x3f53fb79	0.8280559
100	0x3f32ea2c	0.6988857
101	0x3f40b114	0.752702
102	0x3f2e019a	0.67971194
103	0x3f721c2a	0.94574225
104	0x3f694b75	0.91130763
105	0x3f6ca642	0.9244119
106	0x3f334afb	0.70036286
107	0x3f770e2a	0.9650599
108	0x3f90632f	1.1280268
109	0x3f7cc2f8	0.98735
110	0x3f999e9a	1.2001526
111	0x3f4fa1a2	0.8110601
112	0x3f43e961	0.7652798
113	0x3f71adec	0.9440601
114	0x3f4a56bd	0.790386
115	0x3f4bab2c	0.7955806
116	0x3f414c01	0.755066
117	0x3f2d4542	0.67683804
118	0x3f3ecf3d	0.7453497
119	0x3f3b4dc0	0.7316551
120	0x3f6646c0	0.89951706
121	0x3f39c7c4	0.72570443
122	0x3f76c2f9	0.96391255
123	0x3f6c9bcf	0.92425245
124	0x3f89f4b1	1.0777799
125	0x3f3e20ee	0.74268997
126	0x3f22df1c	0.6362169
127	0x3f295f26	0.6616081
128	0x3f6fa62f	0.9361295
129	0x3f63d7e9	0.8900133
130	0x3f4c962b	0.7991664
131	0x3f8c10f2	1.0942671
132	0x3f4106c3	0.7540094
133	0x3f4281c9	0.75979286
134	0x3f54634c	0.82964015
135	0x3f6c427a	0.92288935
136	0x3f56865d	0.8379877
137	0x3f534e13	0.82541007
138	0x3f55a33c	0.834522
139	0x3fa5f4be	1.2965314
140	0x3f927327	1.1441392
141	0x3f74d392	0.9563533
142	0x3f804bf6	1.0023181
143	0x3f59859e	0.8496951
144	0x3f61ec9b	0.88251656
145	0x3f9128b2	1.1340544
146	0x3f244fd1	0.6418429
147	0x3f4230f9	0.75855976
148	0x3f4e11e3	0.8049604
149	0x3f51c5f4	0.8194268
150	0x3f527077	0.8220286
151	0x3f392d07	0.7233433
152	0x3f4f5ced	0.8100117
153	0x3f31e820	0.6949482
154	0x3f84f975	1.0388628
155	0x3f694ac1	0.9112969
156	0x3f7f1523	0.9964163
157	0x3f51ca50	0.8194933
158	0x3f4aae2c	0.79172015
159	0x3f60dc6b	0.8783633
160	0x3f9cac28	1.2240038
161	0x3f4235a2	0.7586309
162	0x3f582a88	0.844399
163	0x3f817e26	1.0116622
164	0x3f3b8a58	0.7325797
165	0x3f6fa5d9	0.9361244
166	0x3f438e2e	0.76388824
167	0x3f36b96e	0.71376693
168	0x3f44650d	0.7671669
169	0x3f54dde5	0.83151084
170	0x3f2ce573	0.6753761
171	0x3f2d456b	0.6768405
172	0x3f69b774	0.9129555
173	0x3f4100f4	0.7539208
174	0x3f59b1a1	0.85036665
175	0x3f5966c1	0.84922415
176	0x3f3d780d	0.7401131
177	0x3f3e0759	0.7422996
178	0x3f55849b	0.83405465
179	0x3f17a64e	0.59238136
180	0x3f75b2fd	0.9597624
181	0xb992bb56	-0.00027986866
182	0x3f432c21	0.7623921
183	0x3f68313b	0.9070012
184	0x3f672cab	0.9030253
185	0x3f5fc5bd	0.874111
186	0x3f662cce	0.89912117
187	0x3f4984af	0.78718084
188	0x3f4ad088	0.79224443
189	0x3f3c5264	0.7356322
190	0x3f463de7	0.77438205
191	0x3f61fce3	0.882765
192	0x3f5606b6	0.8360399
193	0x3f1c2c5d	0.61005193
194	0x3f737300	0.9509735
195	0x3f852c50	1.0404148
196	0x3f768147	0.9629101
197	0x3f3940e3	0.72364634
198	0x3f2350ba	0.63795054
199	0x3fa93465	1.3219115
200	0x3f8013eb	1.0006078
201	0x3f3dafc4	0.7409632
202	0x3f66028e	0.8984765
203	0x3f651aea	0.8949419
204	0x3f01e7d5	0.5074437
205	0x3f564b3e	0.8370856
206	0x3f89f23c	1.0777049
207	0x3f7c48b0	0.9854841
208	0x3f6524b9	0.8950916
209	0x3f8ef6fc	1.1169124
210	0x3f5c1d14	0.8598187
211	0x3f3846c6	0.7198299
212	0x3f864b66	1.049176
213	0x3f275686	0.653664
214	0x3f42e0c6	0.7612423
215	0x3f7e8589	0.9942251
216	0x3f5bfa99	0.85929257
217	0x3f30d9a4	0.69082093
218	0x3f724375	0.9463418
219	0x3f4146c6	0.75498617
220	0x3f84f867	1.0388306
221	0x3f6e24e3	0.93025035
222	0x3f993991	1.1970693
223	0x3f8a919e	1.0825689
224	0x3f86a395	1.0518671
225	0x3f5acc41	0.85467917
226	0x3f68fcde	0.91010845
227	0x3f52e58a	0.823815
228	0x3f1bf139	0.6091495
229	0x3f82e267	1.0225343
230	0x3f63618b	0.88820714
231	0x3f64f57f	0.894371
232	0x3f94d219	1.1626617
233	0x3f73ea35	0.95279247
234	0x3f81b3b9	1.0132972
235	0x3f597177	0.8493876
236	0x3f3de836	0.7418245
237	0x3f61a1d2	0.88137543
238	0x3f414565	0.7549651
239	0x3f849e6b	1.0360845
240	0x3f2b72a6	0.66971815
241	0x3f266c1d	0.6500872
242	0x3f67d8e3	0.9056532
243	0x3f8a7708	1.0817575
244	0x3f6ae003	0.91748065
245	0xbace8e8b	-0.0015759034
246	0x3f5ee62a	0.8706995
247	0x3f1f0949	0.62123543
248	0x3f529907	0.8226475
249	0x3f337030	0.7009306
250	0x3f5c9d6c	0.86177707
251	0x3f4fe01a	0.81201327
252	0x3f87b7e6	1.0602996
253	0x3f109cc5	0.5648921
254	0x3f360534	0.7110169
255	0x3f147d13	0.5800335

bn1.bias f4 [400]
0	0xbf90facc	-1.1326537
1	0xbf5b4a04	-0.85659814
2	0xbf80b943	-1.0056537
3	0xbf8ecf81	-1.1157075
4	0xbf78716f	-0.97048086
5	0xbf203c21	-0.6259175
6	0xbf591a62	-0.8480588
7	0xbf89ee12	-1.0775778
8	0xbf10ae0a	-0.5651556
9	0xbf8b1559	-1.086589
10	0xbf7969ce	-0.9742707
11	0xbf59b61a	-0.8504349
12	0xbf23d702	-0.6399995
13	0xbf01f18e	-0.5075921
14	0xbf517036	-0.81811845
15	0xbf9fea53	-1.2493385
16	0xbf2d9000	-0.6779785
17	0xbf8be683	-1.0929722
18	0xbf1bb301	-0.60820013
19	0xbf1bd093	-0.60865134
20	0xbf439284	-0.7639544
21	0xbf92c606	-1.1466682
22	0xbf1d07bd	-0.6133993
23	0xbc4a446f	-0.012345417
24	0xbf5e6b80	-0.8688278
25	0xbf4c3492	-0.79767716
26	0xbf4fc867	-0.81165165
27	0xbf63520f	-0.88797086
28	0xbf785fa3	-0.9702093
29	0xbf045139	-0.51686436
30	0xbf242b7f	-0.6412887
31	0xbeec1ca8	-0.46115613
32	0xbe140afc	-0.14457315
33	0xbf42953c	-0.76008964
34	0xbef5dc95	-0.48019853
35	0xbf34f192	-0.7068111
36	0xbef75a7e	-0.48311228
37	0xbf36d4c4	-0.71418405
38	0xbf9948b6	-1.1975315
39	0xbf2f9f63	-0.6860258
40	0xbf4e35ef	-0.80551046
41	0xbf45224e	-0.7700547
42	0xbf6c8377	-0.923881
43	0xbf15bc1b	-0.5849015
44	0xbf209dc2	-0.6274072
45	0xbf0a67a6	-0.54064405
46	0xbf3f0820	-0.7462177
47	0xbedc8e7f	-0.43077466
48	0xbed85748	-0.4225409
49	0xbf1e5a2c	-0.6185634
50	0xbf52e655	-0.8238271
51	0xbbb23da1	-0.0054394756
52	0xbf61e3bd	-0.88238126
53	0xbec060c5	-0.3757383
54	0xbeeaf574	-0.4589039
55	0xbf5ed18e	-0.87038505
56	0xbeda2f13	-0.4261404
57	0xbf696220	-0.9116535
58	0xbf0c3340	-0.547657
59	0xbf893b9c	-1.0721316
60	0xbe4a55b8	-0.19759262
61	0xbf848663	-1.0353512
62	0xbe6cf28b	-0.23139398
63	0xbed80008	-0.42187524
64	0xbf6476ae	-0.8924359
65	0xbfac4be6	-1.3460662
66	0xbf695152	-0.9113971
67	0xbf61f9d4	-0.8827183
68	0xbee27f2d	-0.44237652
69	0xbf87e1cf	-1.0615786
70	0xbf419780	-0.75621796
71	0xbf6cd1a1	-0.9250737
72	0xbf4a5b43	-0.79045504
73	0xbf5314c8	-0.82453585
74	0xbf47ccc1	-0.78046805
75	0xbf315e1b	-0.6928422
76	0xbe6bbdbe	-0.230216
77	0xbf3806d3	-0.7188541
78	0xbd2d6af7	-0.042338338
79	0xbf2fa510	-0.6861124
80	0xbf85ce14	-1.0453515
81	0xbf52f103	-0.82399005
82	0xbf460553	-0.77351874
83	0xbeddf494	-0.4335066
84	0xbf25ed43	-0.6481516
85	0xbfa0069a	-1.2502015
86	0xbeb6d7ab	-0.35711417
87	0xbe56fb70	-0.20994353
88	0xbf802724	-1.0011945
89	0xbf257524	-0.6463187
90	0xbf34d6c6	-0.7064022
91	0xbf498495	-0.7871793
92	0xbe753122	-0.23944524
93	0xbebb5c65	-0.3659393
94	0xbf3dfc8f	-0.742135
95	0xbf32de2d	-0.69870263
96	0xbede7fdf	-0.43456933
97	0xbf394718	-0.72374105
98	0xbeffd3f4	-0.49966395
99	0xbf34cf0a	-0.70628417
100	0xbf0f0537	-0.5586733
101	0xbf45c28c	-0.7724998
102	0xbec3d185	-0.38245788
103	0xbf8dec19	-1.1087676
104	0xbf1fb6aa	-0.623881
105	0xbf65e34f	-0.8979997
106	0xbeee435b	-0.46535763
107	0xbf987dfb	-1.1913446
108	0xbf63c3ce	-0.8897065
109	0xbf626549	-0.884358
110	0xbf924acb	-1.1429075
111	0xbf782416	-0.9693006
112	0xbf308d7b	-0.6896588
113	0xbf662d06	-0.8991245
114	0xbf097b98	-0.53704214
115	0xbf3e3310	-0.74296665
116	0xbf09968c	-0.5374534
117	0xbebdcea3	-0.37071714
118	0xbf09363b	-0.53598374
119	0xbf3e9432	-0.7444488
120	0xbfaaf7f9	-1.3356925
121	0xbf1b9e8b	-0.6078879
122	0xbf34e9eb	-0.7066943
123	0xbf6fad70	-0.9362402
124	0xbf9dbb26	-1.2322738
125	0xbf472116	-0.7778486
126	0xbefb7c56	-0.49118298
127	0xbed611e0	-0.41810513
128	0xbf1f389b	-0.6219575
129	0xbf58e5e7	-0.84725803
130	0xbf280162	-0.6562711
131	0xbf866fdd	-1.0502888
132	0xbf77fd84	-0.9687121
133	0xbf142780	-0.5787277
134	0xbf4af080	-0.79273224
135	0xbf92d271	-1.1470472
136	0xbf9794f5	-1.1842333
137	0xbf426218	-0.7593093
138	0xbefb4884	-0.49078763
139	0xbfae73af	-1.3629054
140	0xbf8d96fb	-1.10617
141	0xbf00d09e	-0.50318325
142	0xbf8a22d1	-1.0791875
143	0xbf6a2f93	-0.9147884
144	0xbf43cc70	-0.7648382
145	0xbf496778	-0.78673506
146	0xbef48648	-0.47758698
147	0xbf4f38ad	-0.80945855
148	0xbf27a5d1	-0.6548739
149	0xbf09bdab	-0.53805035
150	0xbf4d1d27	-0.8012261
151	0xbea91732	-0.3302551
152	0xbf381202	-0.7190248
153	0xbefb030e	-0.49025768
154	0xbf567a48	-0.83780336
155	0xbf8f3469	-1.1187869
156	0xbf940853	-1.156504
157	0xbf301bd3	-0.68792456
158	0xbf2d092b	-0.67592114
159	0xbf78be15	-0.9716504
160	0xbfa348df	-1.2756613
161	0xbf36f80a	-0.7147223
162	0xbf32e6d2	-0.69883454
163	0xbf2a5314	-0.6653302
164	0xbf26a936	-0.65101945
165	0xbed49448	-0.4151938
166	0xbeb7135d	-0.3575696
167	0xbed35b1c	-0.41280448
168	0xbf29564c	-0.66147304
169	0xbf2e8eef	-0.6818685
170	0xbf1b8bb7	-0.6076006
171	0xbf0788c2	-0.5294305
172	0xbf517b13	-0.8182842
173	0xbf4ca20f	-0.7993478
174	0xbf6e408c	-0.9306724
175	0xbeb3c2bd	-0.3510951
176	0xbf472522	-0.77791035
177	0xbf5da7e9	-0.86584336
178	0xbf5ee055	-0.87061054
179	0xbf12b0be	-0.5730094
180	0xbf9f633e	-1.2452161
181	0xbc6db15e	-0.01450762
182	0xbf295184	-0.6614001
183	0xbf842644	-1.0324178
184	0xbf94d1f6	-1.1626575
185	0xbf7efb9f	-0.99602693
186	0xbf82b069	-1.0210086
187	0xbf671f66	-0.90282285
188	0xbf38e07a	-0.72217524
189	0xbf44a724	-0.76817536
190	0xbf3bb1c3	-0.7331812
191	0xbf264e37	-0.64963096
192	0xbf45cb4c	-0.7726333
193	0xbf09fe0a	-0.5390326
194	0xbf845823	-1.0339397
195	0xbf82440f	-1.017702
196	0xbf9d2be9	-1.2279025
197	0xbf10d432	-0.56573784
198	0xbf4f9bb5	-0.81096965
199	0xbfa86374	-1.3155351
200	0xbf895ae2	-1.073086
201	0xbf0975e3	-0.53695506
202	0xbf3b9b84	-0.73284173
203	0xbf61eb09	-0.8824926
204	0xbed39136	-0.41321725
205	0xbf5f7bcd	-0.8729828
206	0xbfbb5c49	-1.4637538
207	0xbf96ead3	-1.1790413
208	0xbf7af1be	-0.9802512
209	0xbfa414b6	-1.281882
210	0xbf0b72fe	-0.5447234
211	0xbf30de06	-0.6908878
212	0xbf750a70	-0.9571905
213	0xbed3d512	-0.41373497
214	0xbf5b4369	-0.85649735
215	0xbf4523b6	-0.77007616
216	0xbf5a0026	-0.85156476
217	0xbf351677	-0.70737404
218	0xbf2de389	-0.67925316
219	0xbe9d27d7	-0.30694458
220	0xbf52eb48	-0.8239026
221	0xbf5126f8	-0.81700087
222	0xbf3f8e84	-0.74826837
223	0xbf494fbb	-0.78637284
224	0xbf626311	-0.88432413
225	0xbf61ebc5	-0.8825038
226	0xbf526d69	-0.82198197
227	0xbf5b21af	-0.8559827
228	0xbf030e01	-0.51193243
229	0xbf87f9a2	-1.0623057
230	0xbf32515d	-0.696554
231	0xbf59cfad	-0.85082513
232	0xbf64fd26	-0.89448774
233	0xbf9ba65c	-1.2160144
234	0xbf8db311	-1.1070272
235	0xbf3ff0a0	-0.7497654
236	0xbf1979b5	-0.59951335
237	0xbf5e7a5d	-0.8690546
238	0xbf416bc9	-0.7555509
239	0xbfa10ac9	-1.2581416
240	0xbf1c0c76	-0.60956514
241	0xbef924ca	-0.4866088
242	0xbf58f54a	-0.8474928
243	0xbf6ed416	-0.9329237
244	0xbf84e489	-1.0382243
245	0xbc1565ca	-0.009118507
246	0xbf4d724f	-0.80252546
247	0xbeba954c	-0.3644203
248	0xbf3110b7	-0.6916613
249	0xbf12fcf6	-0.5741724
250	0xbf07cf67	-0.53050846
251	0xbf1ff4c6	-0.6248287
252	0xbf359e41	-0.709446
253	0xbe9e634e	-0.30935138
254	0xbf29776e	-0.6619786
255	0xbec752df	-0.38930413

bn1.running_mean f4 [400]
0	0xbe9dc685	-0.3081552
1	0xbff81d1d	-1.9383885
2	0xbf8419e6	-1.0320404
3	0xbfcb61a0	-1.5889168
4	0x3fa301ca	1.2734921
5	0xbf6eaad3	-0.9322941
6	0xc012e950	-2.2954903
7	0xbee5819c	-0.44825447
8	0xbf4946d7	-0.7862372
9	0x3f984e07	1.1898812
10	0x40022515	2.0335133
11	0xc019082f	-2.3911245
12	0xc03e8d77	-2.9773843
13	0x406628b6	3.5962348
14	0xbfa58b89	-1.2933208
15	0xbf1a28e0	-0.6021862
16	0x40619524	3.5247278
17	0x401498b6	2.3218207
18	0x3f3ef64a	0.7459456
19	0x3e1bab6a	0.15202108
20	0x3f89914a	1.0747464
21	0xbffb12dd	-1.9615132
22	0x3ec370dc	0.38172042
23	0x3ff50da6	1.914479
24	0x3f03aa53	0.5143177
25	0xbfbb7e42	-1.4647906
26	0xbe8ba389	-0.27273205
27	0x3d81a45c	0.06330177
28	0x3f2b7722	0.6697866
29	0x3ed46c76	0.41489
30	0x3effbb44	0.4994756
31	0x3ea3a8bf	0.3196468
32	0x40084faf	2.1298635
33	0xc0761881	-3.8452456
34	0xbeb9913c	-0.36243618
35	0x3fc39a6c	1.5281501
36	0x3f39afef	0.7253408
37	0x3fd21a4c	1.6414275
38	0xc0405c10	-3.005619
39	0xbf6ba9ee	-0.9205617
40	0xbf1b3b77	-0.6063761
41	0x3f81c814	1.0139184
42	0xbec9d146	-0.39417475
43	0xc00a5d39	-2.1619399
44	0xbfc84164	-1.5644956
45	0xbfe95033	-1.82276
46	0x3f4eccf1	0.80781466
47	0x3fbf048b	1.4923261
48	0x3e7c5941	0.24643423
49	0x3f02c7d4	0.51086164
50	0xbf95d344	-1.1705098
51	0x3d8e4bf5	0.069480814
52	0xbff8ffed	-1.9453102
53	0x3f26566e	0.6497563
54	0x400f6b14	2.2409105
55	0xc01a63b1	-2.4123347
56	0x3df11ff6	0.11773674
57	0xc01d1e2b	-2.4549663
58	0x3e9b9912	0.3039022
59	0xc0917e68	-4.5466805
60	0x3ee194ac	0.4405874
61	0x3f9a7dd2	1.2069647
62	0x3f86e79f	1.0539435
63	0x401001b8	2.250105
64	0xbe71588f	-0.23568939
65	0xc03154b6	-2.7707953
66	0xc007efa3	-2.1240013
67	0x3e696039	0.22790612
68	0x40dee658	6.965618
69	0xc03e4773	-2.973111
70	0xbe90b796	-0.28265065
71	0xbe277360	-0.16352606
72	0x3fe9b006	1.8256843
73	0x3f0d0612	0.5508739
74	0xbf3feda0	-0.7497196
75	0xbf132a45	-0.57486373
76	0x403c4d73	2.9422271
77	0xbf8fdd52	-1.1239417
78	0x3dc9967f	0.09843158
79	0x3f99bdd6	1.2011058
80	0xbf075088	-0.52857256
81	0xbf86de1e	-1.0536535
82	0x3bb23ad6	0.0054391427
83	0x40b10397	5.531688
84	0xbfde2ab4	-1.7356782
85	0xbfa8f465	-1.3199583
86	0x3f8a2336	1.0791996
87	0x408e00c7	4.437595
88	0xc0229f8f	-2.5409887
89	0x3efce77a	0.49395353
90	0x3f8469d9	1.0344802
91	0x3efa17d2	0.48846298
92	0x3f4babda	0.795591
93	0x3ee52706	0.44756335
94	0xbf94bb34	-1.161963
95	0xbe91fa76	-0.285114
96	0x404357bb	3.0522296
97	0xbf8f7470	-1.1207409
98	0x3d6062ec	0.05478184
99	0x3ffa7aee	1.9568765
100	0xbefee661	-0.4978514
101	0xbf9ecf9c	-1.2407107
102	0x3f2d703d	0.6774939
103	0xc083a46f	-4.1138225
104	0x3ed0cadc	0.4077977
105	0xbfbb849d	-1.4649845
106	0x40b24888	5.571354
107	0xc001ad5b	-2.0262058
108	0xbf81fbd0	-1.0154972
109	0xbf202662	-0.6255857
110	0xc003b907	-2.0581682
111	0xbfc8a099	-1.567401
112	0x3eed6176	0.4636342
113	0x3f2d9cbf	0.678173
114	0xbe13c380	-0.14430046
115	0xbf7b526b	-0.98172635
116	0x3f648eec	0.8928058
117	0x3f4f6d5f	0.8102626
118	0xbf7dd4d7	-0.9915289
119	0x3ee963b8	0.45583892
120	0xbfa9d384	-1.3267674
121	0xbebee341	-0.37282756
122	0x3e261a04	0.16220862
123	0xbf527380	-0.8220749
124	0xbfd2c183	-1.6465305
125	0x3dc1bd18	0.09459895
126	0x400fe88e	2.248569
127	0x40782bac	3.8776655
128	0x3f0560a7	0.52100605
129	0xbe8fd74d	-0.2809395
130	0xc00af834	-2.171399
131	0xbf075fac	-0.5288036
132	0xc0767f9a	-3.8515382
133	0x3f09238d	0.5356987
134	0x3e8a6450	0.27029657
135	0xc031c530	-2.7776604
136	0xbfbad3a7	-1.4595841
137	0xbfb33154	-1.3999429
138	0x3eb0e822	0.34552103
139	0xbe6884d0	-0.22706914
140	0xc0053e17	-2.0819147
141	0x3fc2887f	1.5197905
142	0xbfda4563	-1.7052425
143	0xbfa1bf7b	-1.263656
144	0x3f6335da	0.88754046
145	0x3ef88619	0.48539808
146	0xbe9c7f81	-0.30566028
147	0x3f3fc82b	0.7491481
148	0x3f9c71a6	1.2222183
149	0x3e8d4737	0.27593395
150	0xc058bb60	-3.3864365
151	0x3fda81c9	1.7070857
152	0xbf4bfb20	-0.7968006
153	0xbf11284e	-0.56702125
154	0xbf04959e	-0.517908
155	0xbfe73a49	-1.8064662
156	0xbf32ebb3	-0.698909
157	0xbf0cf53d	-0.55061704
158	0xbffb572f	-1.9635981
159	0xc027a607	-2.6195085
160	0xc0343ca0	-2.8162003
161	0xc00c7965	-2.1949093
162	0x3fd47098	1.6596861
163	0x3fc2bc2c	1.5213675
164	0x3e3315ca	0.1748878
165	0x3e25dbe3	0.16197161
166	0xbe11614d	-0.14197274
167	0x3fc25e82	1.5185091
168	0x3f8f0954	1.1174722
169	0x4036368e	2.8470798
170	0xbfe3a416	-1.778445
171	0xbfe8549b	-1.815082
172	0x3fac330f	1.3453082
173	0xbfa84811	-1.3146993
174	0x3e3cf761	0.18453743
175	0x3faab701	1.3337098
176	0x3f6f89e2	0.9356977
177	0xc07a8e26	-3.914926
178	0xc03b41b1	-2.9258845
179	0xc0063c77	-2.0974405
180	0xbf3a7bad	-0.72844964
181	0xbe0a01d2	-0.13477257
182	0xbfe80d31	-1.8129026
183	0xbf4c5bd4	-0.7982762
184	0xbf100a60	-0.5626583
185	0xbfd95228	-1.6978197
186	0xc027d6cb	-2.622485
187	0xbe9f9683	-0.3116952
188	0xc0574fde	-3.3642497
189	0xc01169f9	-2.272093
190	0xbf055775	-0.52086574
191	0xbfcea901	-1.6145326
192	0x40315b8c	2.7712126
193	0x3f58bcb7	0.84662956
194	0x3ef76ffd	0.48327628
195	0xbf24175d	-0.6409815
196	0x3f8dda57	1.1082257
197	0x406397c8	3.556139
198	0xbfb46493	-1.4093193
199	0xbf6394be	-0.8889884
200	0xbf6a1b06	-0.91447484
201	0xbeb7f47b	-0.3592871
202	0x3ed7ea9b	0.42171177
203	0xbfe43927	-1.7829942
204	0x3f997b4a	1.199075
205	0xc0161987	-2.345308
206	0x3f8cacd7	1.0990247
207	0xc03236c3	-2.7845924
208	0xbf45872f	-0.771594
209	0x400e996c	2.2281141
210	0x3eb65daf	0.3561835
211	0xbfe3a860	-1.7785759
212	0xbfc63d28	-1.5487413
213	0x40676739	3.6156752
214	0x402214a9	2.532511
215	0x3e1fd0c5	0.15606983
216	0xbf839dfc	-1.0282588
217	0x3f16a672	0.58847725
218	0xbeff63d9	-0.49880865
219	0x3faf185a	1.3679307
220	0xbf90e731	-1.1320554
221	0x3fa40c66	1.2816284
222	0xbe92cd05	-0.28672042
223	0xbbc9d07b	-0.006158886
224	0x3e6740fb	0.22583382
225	0xbeaca0c0	-0.33716393
226	0xbfe31424	-1.7740521
227	0xbf473f70	-0.7783117
228	0x401f7545	2.4915326
229	0xbe36e2b1	-0.17859913
230	0x402ba118	2.6817074
231	0x3f320fd1	0.69555384
232	0x3e7f4d9d	0.24931951
233	0xbfa5b035	-1.2944399
234	0x3f5843bb	0.8447835
235	0x3fb0f280	1.3824005
236	0xbebd6445	-0.36990562
237	0x3d92d795	0.07170025
238	0x3e092f14	0.13396865
239	0xbf80d707	-1.0065621
240	0x3f4e30fd	0.805435
241	0xbeec0fc8	-0.4610579
242	0x3fd032ca	1.62655
243	0xbf9e00a3	-1.2343944
244	0xbfd202ef	-1.6407145
245	0x3db1a119	0.08673305
246	0xbce879dc	-0.02837842
247	0x40371bb1	2.8610651
248	0xc00779d8	-2.1168118
249	0xbfd31a69	-1.6492435
250	0xbec81918	-0.39081645
251	0x3f8169fd	1.011047
252	0x3f332c7d	0.6998976
253	0x3f8be8e4	1.0930448
254	0x3ef0d59d	0.47037974
255	0x3fb8ed61	1.4447442

bn1.running_var f4 [400]
0	0x410e01d6	8.875448
1	0x420ef8ea	35.74308
2	0x4155ca3a	13.361872
3	0x4175e0b9	15.367364
4	0x416f5ba9	14.959878
5	0x411ca030	9.789108
6	0x411630bc	9.386898
7	0x41144415	9.266622
8	0x4135a0f2	11.351793
9	0x40ffeab7	7.9974017
10	0x41038d14	8.221943
11	0x40ed6b7f	7.419372
12	0x413b9c24	11.72562
13	0x40e41235	7.1272225
14	0x41d04189	26.032
15	0x40aedf8d	5.464789
16	0x4144f411	12.309587
17	0x4198054b	19.002584
18	0x4130c761	11.0486765
19	0x417202c9	15.12568
20	0x413183e4	11.0947
21	0x418049f1	16.036104
22	0x41289cab	10.538249
23	0x40dbcf31	6.869042
24	0x414b1288	12.692024
25	0x40cbfe88	6.3748207
26	0x4140586c	12.021587
27	0x40cd3241	6.4123845
28	0x411b90b5	9.722829
29	0x40a0c2aa	5.0237627
30	0x411316a2	9.193026
31	0x4136de15	11.429219
32	0x4116dbc1	9.428651
33	0x410e1844	8.880924
34	0x414221e9	12.133279
35	0x414a6343	12.649234
36	0x411cc5cc	9.79829
37	0x41041d2a	8.25712
38	0x40a3b2f4	5.115595
39	0x412c77e8	10.779274
40	0x40fcd80c	7.901373
41	0x411a2965	9.635106
42	0x41214058	10.078209
43	0x41951d5f	18.639341
44	0x40e29adf	7.081405
45	0x40d2c1bc	6.586149
46	0x41986c96	19.05302
47	0x41494a3f	12.5806265
48	0x41d91d05	27.13917
49	0x41282eaa	10.511393
50	0x40ffaa52	7.989541
51	0x3dd226e6	0.102613255
52	0x418e6868	17.80098
53	0x410015d1	8.005326
54	0x40aa1ab7	5.315761
55	0x415a8ec7	13.659858
56	0x41b032b2	22.024754
57	0x412e02a2	10.875643
58	0x41617e34	14.093311
59	0x416fce14	14.987812
60	0x410276b7	8.153983
61	0x4126a05e	10.414152
62	0x40eabab6	7.335292
63	0x40fa991e	7.831191
64	0x40e806a8	7.2508125
65	0x41453fa5	12.328038
66	0x40e41ec0	7.1287537
67	0x411b8dd8	9.72213
68	0x41b9e9e1	23.239199
69	0x412f9735	10.974416
70	0x4115431e	9.328886
71	0x40e6d3b9	7.213345
72	0x418d9e5d	17.702326
73	0x40b80d2f	5.7516093
74	0x41331cb9	11.194512
75	0x40bb1fda	5.847638
76	0x417d0cd6	15.815634
77	0x4182e040	16.359497
78	0x3eca2925	0.39484516
79	0x41a059ae	20.043789
80	0x4117950d	9.473889
81	0x41198ce8	9.596901
82	0x4108ab90	8.541885
83	0x41880b34	17.00547
84	0x4143f7be	12.247984
85	0x409aaa02	4.833253
86	0x41075d28	8.460243
87	0x4108af63	8.542819
88	0x41158893	9.345843
89	0x4123f438	10.247124
90	0x412758e7	10.459205
91	0x4131374f	11.076003
92	0x40b9e585	5.8092675
93	0x40fb87d6	7.8603315
94	0x416f6f13	14.964618
95	0x40ccb725	6.3973565
96	0x4115832f	9.344527
97	0x41ef9485	29.94752
98	0x40ffb08e	7.990302
99	0x411c72fe	9.778074
100	0x40cff8da	6.4991274
101	0x413cf9ca	11.810984
102	0x40f97c56	7.7964277
103	0x41660476	14.376089
104	0x40a07f8c	5.0155697
105	0x41a4e57d	20.612055
106	0x4211f49c	36.488876
107	0x40bc2847	5.8799167
108	0x41876b14	16.927284
109	0x40db709e	6.857497
110	0x411775c4	9.466251
111	0x4131d5cc	11.1146965
112	0x417e3ed7	15.890342
113	0x409f8f47	4.98624
114	0x40ed800f	7.421882
115	0x40cbf2f3	6.373407
116	0x412a3461	10.637788
117	0x407c0697	3.9379022
118	0x408b151a	4.346326
119	0x40fa2fd2	7.8183374
120	0x410c6dbb	8.77679
121	0x40dc772e	6.8895483
122	0x4111320a	9.074717
123	0x40c5f073	6.1856017
124	0x40b5954f	5.674476
125	0x40ba9e3a	5.831815
126	0x40a48090	5.1406937
127	0x4156780c	13.404308
128	0x40c87b3e	6.265044
129	0x4190cb68	18.09932
130	0x40bd7ef3	5.9217467
131	0x413875f2	11.528795
132	0x4143fb71	12.248887
133	0x416c5e11	14.772965
134	0x4158c395	13.5477495
135	0x40fd220e	7.910407
136	0x40a512b8	5.158535
137	0x414d1400	12.817383
138	0x4124b8a5	10.295079
139	0x4111151f	9.0676565
140	0x40effe3b	7.499784
141	0x411c301b	9.7617445
142	0x41b07551	22.057283
143	0x40bd0cb2	5.9077997
144	0x40df80ab	6.9844565
145	0x40b635e6	5.6940794
146	0x41341319	11.2546625
147	0x41466dae	12.401777
148	0x4110b260	9.043549
149	0x40f25053	7.572305
150	0x40e67fa9	7.2030835
151	0x4085fbc5	4.1869836
152	0x40d39fba	6.613248
153	0x416ca4a0	14.790192
154	0x40d8dbac	6.7768154
155	0x40995f7f	4.792907
156	0x4107e000	8.4921875
157	0x415555a9	13.333413
158	0x415f663d	13.9624605
159	0x416c443a	14.766657
160	0x412e6ac1	10.901063
161	0x409f3a8c	4.975897
162	0x41135035	9.207082
163	0x40a57dc3	5.171602
164	0x40f49551	7.643227
165	0x40d0c12b	6.52358
166	0x41081b52	8.50667
167	0x41080ed2	8.503618
168	0x40a74633	5.2273192
169	0x4187a028	16.953201
170	0x41becca6	23.849926
171	0x410b7aeb	8.717509
172	0x410c4de6	8.769018
173	0x4182f5b9	16.369982
174	0x4138db7b	11.553584
175	0x40c0ae39	6.0212674
176	0x41209ee6	10.038794
177	0x41922b0c	18.271019
178	0x41adef6e	21.741909
179	0x41062409	8.383798
180	0x40a1008d	5.031317
181	0x3de1642c	0.110054344
182	0x4174cd90	15.300186
183	0x40e4ea97	7.1536365
184	0x40de1a5e	6.9407187
185	0x41818614	16.190468
186	0x41011fbd	8.070249
187	0x40fa24fc	7.8170147
188	0x416a9887	14.662238
189	0x41a79420	20.947327
190	0x41208456	10.032309
191	0x4175a01c	15.351589
192	0x412bdcdf	10.741424
193	0x41878fde	16.945248
194	0x40ea7b3e	7.327544
195	0x41203cd2	10.014849
196	0x410bcc0b	8.737315
197	0x4130ee48	11.058174
198	0x412df4ce	10.872267
199	0x411e3b6a	9.889505
200	0x41007276	8.027945
201	0x4106e2ba	8.430353
202	0x408ff9e4	4.499254
203	0x40cf0568	6.46941
204	0x413f7e99	11.968408
205	0x410a168f	8.630507
206	0x41170a74	9.440052
207	0x40ca8912	6.329232
208	0x4060e36e	3.5138812
209	0x4132ed34	11.182911
210	0x40e9a378	7.3012047
211	0x41321e8e	11.13246
212	0x4127dc46	10.491278
213	0x4134a011	11.289079
214	0x41111029	9.066445
215	0x4182228b	16.266867
216	0x40ad299c	5.4113293
217	0x4157727e	13.465452
218	0x414502b2	12.313158
219	0x40ce485c	6.446333
220	0x418d3a45	17.653452
221	0x41308ca3	11.034335
222	0x40eb189b	7.3467536
223	0x4101a533	8.102832
224	0x41ae5b1e	21.79449
225	0x413ab2e6	11.668676
226	0x41033699	8.2008295
227	0x40cf9000	6.486328
228	0x413bb36a	11.731302
229	0x4118af5c	9.542812
230	0x411490fc	9.285397
231	0x41130742	9.189272
232	0x410da45e	8.852629
233	0x413270f0	11.152573
234	0x4190a552	18.080723
235	0x40ef81bd	7.484587
236	0x4099f640	4.81131
237	0x419a57b3	19.292822
238	0x40dd7534	6.920557
239	0x410b87db	8.720668
240	0x415668ce	13.400587
241	0x41194701	9.579835
242	0x418abcf6	17.342266
243	0x4129605e	10.586027
244	0x41527e6a	13.155863
245	0x3dfd6a7b	0.12373825
246	0x408f475c	4.477461
247	0x41197c13	9.592792
248	0x41509453	13.036212
249	0x41f0bc1d	30.091852
250	0x414104b2	12.063646
251	0x410d4edf	8.831756
252	0x410448d9	8.267785
253	0x412b06b1	10.689134
254	0x40a7acb7	5.2398334
255	0x4168d9ad	14.5531435

fc2.weight f4 [300, 400]
0	0xbe42c48c	-0.19020289
1	0xbe287687	-0.16451465
2	0xbecd8381	-0.40139392
3	0x3e607991	0.21921374
4	0x3d85e3c9	0.06537587
5	0x3ed7ebda	0.42172128
6	0xbdbc3422	-0.09189631
7	0xbf2b1819	-0.66833645
8	0xbd8c0a26	-0.06837873
9	0xbe806236	-0.2507493
10	0x3f1c23f3	0.60992354
11	0xbe82dcb9	-0.25559023
12	0x3dfa4e87	0.12222009
13	0xbd9216ab	-0.0713323
14	0xbf5040ba	-0.81348765
15	0xbf154ad7	-0.5831732
16	0xbc081022	-0.008304628
17	0xbf01bd31	-0.5067931
18	0x3cca0dda	0.024664808
19	0x3ef45188	0.47718453
20	0xbf12cd0f	-0.57344145
21	0xbf3f5817	-0.7474379
22	0xbec1b069	-0.37829903
23	0xbfa68968	-1.3010683
24	0x3ea62a21	0.32454017
25	0xbe659c78	-0.2242297
26	0xbdf237e1	-0.11827064
27	0xbe5acebe	-0.21367928
28	0xbd8db8c9	-0.069200106
29	0xbe112e24	-0.14177758
30	0xbf891d27	-1.0712022
31	0xbded6f45	-0.115934886
32	0x3d06cc2c	0.032909557
33	0x3eb8bef0	0.36083174
34	0xbedb71b3	-0.42860183
35	0xbe01492f	-0.12625574
36	0x3ed0c9ac	0.40778863
37	0x3eef8dba	0.46787816
38	0xbed63bf3	-0.41842613
39	0xbe344f70	-0.17608428
40	0xbe41c8fe	-0.18924329
41	0xbe0caca2	-0.13737729
42	0x3cfcdaae	0.030865993
43	0xbef030cc	-0.4691223
44	0xbf1a8caa	-0.60370886
45	0xbe4b855f	-0.19875096
46	0xbe72caa7	-0.23710118
47	0xbe8d91b7	-0.27650234
48	0xbe5c7038	-0.21527183
49	0x3f1f3f1e	0.62205684
50	0xbeb46234	-0.35231173
51	0xbd39aa85	-0.045328636
52	0xbce910a0	-0.02845031
53	0xbee996da	-0.45622903
54	0x3eed6bd6	0.46371335
55	0x3e9687d7	0.29400513
56	0xbe16c624	-0.14724022
57	0x3e6a171a	0.22860375
58	0x3f00a18e	0.5024651
59	0x3e1d57da	0.15365544
60	0x3dfe8331	0.124273665
61	0xbeaaa792	-0.3333097
62	0xbe08fe59	-0.13378276
63	0x3f3fa137	0.7485537
64	0x3e1a8259	0.15088786
65	0xbfa9cc15	-1.3265406
66	0xbe972b14	-0.29525054
67	0xbecfdd05	-0.40598312
68	0xbf005f9a	-0.50145876
69	0xbf557963	-0.83388346
70	0x3ed89344	0.42299855
71	0xbcdc57c5	-0.02689732
72	0x3dafbdff	0.08581161
73	0x3e042896	0.12906107
74	0xbe0fb619	-0.14034308
75	0xbd29f23f	-0.04149079
76	0xbe70c409	-0.23512281
77	0x3ee761dc	0.45191848
78	0xbd198203	-0.037477504
79	0x3dfabb1a	0.12242718
80	0x3dcf1847	0.101120524
81	0xbeb17532	-0.34659725
82	0x3efaaf0d	0.48961678
83	0x3cf95c5f	0.030439554
84	0xbf1b3b77	-0.6063761
85	0x3daf1a79	0.08549971
86	0xbef98ce6	-0.4874031
87	0x3e85b847	0.26117155
88	0x3e79ac3b	0.24382107
89	0xbf884bd3	-1.064814
90	0x3eb98d17	0.36240456
91	0x3de7ed0c	0.1132451
92	0x3eeca79e	0.46221632
93	0xbe427ef9	-0.18993749
94	0xbe87fc96	-0.26559895
95	0x3f0cefd1	0.5505343
96	0xbd711a85	-0.05886318
97	0xbc295888	-0.010336049
98	0xbe8d6cd5	-0.27622095
99	0x3f641bc6	0.8910488
100	0xbf6ed951	-0.9330035
101	0x3f1d1dfa	0.61373866
102	0x3f6ab171	0.91677004
103	0x3f2bb887	0.6707844
104	0xbea4e924	-0.32209122
105	0x3f5a3767	0.8524079
106	0xbeae5865	-0.34051815
107	0xbd973bf9	-0.07384486
108	0xbe738acf	-0.2378342
109	0x3f1f81d0	0.62307453
110	0x3eaf3123	0.34217176
111	0x3bda9e4f	0.006671704
112	0x3ea26096	0.31714314
113	0xbf24ea1a	-0.6441971
114	0xbf1bf912	-0.60926926
115	0xbfbb7709	-1.4645702
116	0x3d1b4265	0.037905116
117	0x3e7614aa	0.2403132
118	0x3e742420	0.23841906
119	0xbeb6a5f0	-0.35673475
120	0x3f081533	0.5315735
121	0xbe91ccd7	-0.28476593
122	0x3e855089	0.26038006
123	0x3d62f6b9	0.055411074
124	0xbf8f4396	-1.11925
125	0xbf064e01	-0.52462775
126	0x3ec0a7d7	0.37628052
127	0xbf1cc235	-0.61233836
128	0xbe887111	-0.26648763
129	0x3f0f4881	0.5597001
130	0xbe1a5a47	-0.150735
131	0xbf9c1d0f	-1.2196368
132	0xbf850e2f	-1.0394953
133	0x3d02a17d	0.03189229
134	0xbe96d0de	-0.29456228
135	0x3a65b284	0.00087622576
136	0x3ec41d76	0.38303727
137	0x3db01f83	0.085997604
138	0xbf276f97	-0.6540465
139	0x3e7b4a89	0.24540152
140	0x3eef4667	0.467334
141	0x3e0ee4b5	0.13954432
142	0x3e47385f	0.19455098
143	0x3eb01069	0.3438752
144	0xbed767e8	-0.42071462
145	0xbee768ff	-0.45197293
146	0xbeb6662e	-0.35624832
147	0x3d90975a	0.07060118
148	0x3e837708	0.2567675
149	0x3cc7c6e5	0.024386832
150	0xbf2f1b25	-0.68400794
151	0xbdb1cf8a	-0.08682163
152	0x3f2a6d24	0.66572785
153	0xbedcaec8	-0.43102098
154	0x3ee721a3	0.4514285
155	0xbef86705	-0.48516098
156	0xbf0d72ae	-0.5525311
157	0xbca8996a	-0.020580966
158	0x3e8142d9	0.25246313
159	0x3e8d4991	0.2759519
160	0xbe0f5306	-0.13996515
161	0x3f168e5a	0.5881096
162	0x3deaf7b7	0.11473029
163	0xbb8492d8	-0.0040458255
164	0xbcc741b9	-0.024323331
165	0xbd13a4ae	-0.036045723
166	0x3ea3937d	0.31948462
167	0xbe7ba19e	-0.24573371
168	0xbee8ddd9	-0.45481756
169	0xbf081cf7	-0.53169197
170	0xbf1c1fc0	-0.60985947
171	0x3d90f428	0.07077819
172	0xbee63ac6	-0.44966716
173	0x3f27338e	0.6531304
174	0xbfa0e146	-1.2568748
175	0x3f01daa5	0.5072425
176	0xbed95f0b	-0.42455325
177	0x3e46bc62	0.194078
178	0xbe27a119	-0.16370048
179	0x3e24fb08	0.16111386
180	0x3e779757	0.24178825
181	0xbd25a03f	-0.040436026
182	0x3f10e302	0.56596386
183	0x3f81b90c	1.0134597
184	0xbcd886c2	-0.026431445
185	0x3e24eaac	0.16105145
186	0x3e84835a	0.25881463
187	0xbe4f38ec	-0.20236558
188	0xbd975695	-0.07389561
189	0xbf06590b	-0.5247962
190	0xbf9c61cc	-1.2217345
191	0xbe8ad4ae	-0.27115387
192	0xbe0e2c58	-0.13884103
193	0xbd80a160	-0.0628078
194	0xbe075fdb	-0.1322016
195	0x3f20c3c7	0.6279873
196	0xbdc07776	-0.09397785
197	0xbebd0e08	-0.36924767
198	0x3ec372b0	0.38173437
199	0x3e935fd8	0.2878406
200	0xbcfdd9a1	-0.030987563
201	0x3e1de2c6	0.15418538
202	0x3e3b39e1	0.18283798
203	0xbea9641a	-0.33084184
204	0xbe9174cc	-0.2840942
205	0x3eacd551	0.33756498
206	0x3d0126b9	0.03153107
207	0x3ef87054	0.485232
208	0x3f43feac	0.76560473
209	0xbf3a200b	-0.72705144
210	0xbf539764	-0.8265288
211	0x3e9bbbbc	0.30416667
212	0xbea97aa8	-0.33101392
213	0x3f7a1c76	0.9769968
214	0x3f40194d	0.75038606
215	0xbeaa317e	-0.33240885
216	0x3d61c968	0.055123717
217	0xbd176170	-0.036958158
218	0xbefd1947	-0.49433348
219	0x3ea230e3	0.31677923
220	0xbeba7a35	-0.36421362
221	0xbe74406b	-0.23852699
222	0xbf06138f	-0.52373594
223	0xbf33aa38	-0.7018161
224	0x3ef46466	0.47732848
225	0xbea3a768	-0.31963658
226	0xbd54bb28	-0.0519363
227	0xbede6c78	-0.4344213
228	0xbe9639b1	-0.2934089
229	0xbdc55a71	-0.09636391
230	0x3e1050b9	0.14093293
231	0x3e29f4f9	0.16597356
232	0x3f113dfc	0.56735206
233	0xbee83936	-0.45356148
234	0xbea0a60f	-0.31376693
235	0xbf66ccae	-0.90156066
236	0x3f8c0cb8	1.0941381
237	0xbe9af22f	-0.30262896
238	0xbf2557cc	-0.6458709
239	0xbe166b93	-0.14689474
240	0xbe66ca62	-0.2253814
241	0x3f00f7e4	0.5037825
242	0xbe2dcd5b	-0.16972868
243	0x3eddb069	0.43298653
244	0x3ea78800	0.32720947
245	0x3ce86624	0.028369017
246	0x3e3e198d	0.18564434
247	0xbe13fa7b	-0.1445102
248	0xbf7ddc12	-0.99163926
249	0xbec86551	-0.39139798
250	0xbf07cbd1	-0.53045374
251	0xbf1bb68e	-0.6082543
252	0x3d92d778	0.07170004
253	0xbf3bb497	-0.73322433
254	0x3e468047	0.19384871
255	0x3eebcbc6	0.46053904
